app/src/main/ml/model.tflite (tflite, 152328 bytes, 10 tensors)

sequential_1/dense_5/BiasAdd/ReadVariableOp f4 [9]
0	0xbbcda253	-0.006275454
1	0xbc688566	-0.014191961
2	0xbc2827a0	-0.010263354
3	0xbc39acb6	-0.011332681
4	0x3b11935e	0.0022213082
5	0x3c1e3633	0.009656477
6	0xbc2f52e1	-0.010700912
7	0xbbe6f2ef	-0.007048003
8	0x3d5b408d	0.053528357

sequential_1/dense_4/BiasAdd/ReadVariableOp f4 [128]
0	0x3a3cecfe	0.00072069454
1	0xba73e5d6	-0.00093039626
2	0xbbe460fb	-0.006969569
3	0xbca5d44b	-0.02024283
4	0x3ce01b72	0.027356837
5	0x39bd493e	0.0003610346
6	0xbc6a5bbe	-0.0143041
7	0x3d1e74a7	0.038685467
8	0x00000000	0.0
9	0xbc09221d	-0.00836995
10	0xbc034c0f	-0.008013739
11	0x3ce0dee7	0.027450038
12	0x3a509b6b	0.00079577294
13	0xbc5b9f43	-0.01340467
14	0x3c4d20ec	0.012520056
15	0x3c210e4b	0.009830068
16	0xbbabed5b	-0.005246801
17	0x3d15a65a	0.0365356
18	0xbc063a3a	-0.008192593
19	0x3cb588d7	0.022159977
20	0xbbbef778	-0.0058278404
21	0x3c833888	0.016018167
22	0xbb154256	-0.0022775135
23	0xbba0519b	-0.0048925406
24	0xbc4e5bfe	-0.012595175
25	0x3c01c54c	0.007920574
26	0xbbde5185	-0.00678462
27	0x3cd7b296	0.026330274
28	0xbc1c2111	-0.009529368
29	0xbba1a5b9	-0.0049330858
30	0x3af43131	0.0018630383
31	0x3d0815ec	0.03322403
32	0xbb50f873	-0.0031886369
33	0x3c1bec38	0.009516768
34	0xbab444c6	-0.0013753406
35	0xbc0eecd0	-0.008723453
36	0x3cae79b4	0.021298267
37	0x3cbd7aec	0.023129903
38	0x3b8df50c	0.0043321904
39	0x3bf82ece	0.007573939
40	0x3cf40ccb	0.029791256
41	0x3be5a8df	0.0070086564
42	0xbca7da00	-0.020489693
43	0x00000000	0.0
44	0x3cef2bc4	0.029195674
45	0xbc52a185	-0.012855892
46	0xbbc7d0d2	-0.0060978914
47	0xbafebc3d	-0.0019434761
48	0xbc3d07de	-0.01153752
49	0x3b99d162	0.00469415
50	0x3bfc78a9	0.0077048135
51	0x3c6e2efc	0.014537569
52	0x00000000	0.0
53	0x00000000	0.0
54	0x3cef7cb0	0.02923426
55	0x3cddb6d9	0.027064728
56	0xbbeaaa9e	-0.0071614524
57	0xbc5e348f	-0.013562336
58	0xbcd56852	-0.02605072
59	0xbca1eb1b	-0.019765427
60	0x3ca94704	0.020663746
61	0x3c375235	0.011189033
62	0xbc4bec9e	-0.012446551
63	0x3cd7b6e2	0.026332323
64	0xbb93fe16	-0.0045163734
65	0xbb9c0ace	-0.00476203
66	0x3ca689d9	0.020329403
67	0xbb925eb9	-0.004466858
68	0x3d0781de	0.033082835
69	0x3ccc44d6	0.024935167
70	0x3c82a602	0.0159483
71	0xbc87a909	-0.016560094
72	0xbb13c73c	-0.0022549173
73	0xbc252337	-0.010079197
74	0x3d55a925	0.052163262
75	0xbc36d5a4	-0.011159334
76	0xbc5b7f48	-0.013397045
77	0x3c71ecc7	0.014765925
78	0xbb070479	-0.002060203
79	0xbc3b9ff1	-0.011451707
80	0xbc0f0f62	-0.008731695
81	0x3c5e7f10	0.013580099
82	0x00000000	0.0
83	0x00000000	0.0
84	0x3bd1b182	0.0063993344
85	0xbc3a52ae	-0.011372251
86	0xbc3dd4c6	-0.011586374
87	0x00000000	0.0
88	0xbb4e7e92	-0.0031508547
89	0xbcb99993	-0.022656238
90	0xbade38bb	-0.0016954163
91	0xbc1ab8de	-0.00944349
92	0xbc1e0fcb	-0.00964732
93	0x3ba2eeaf	0.004972301
94	0xbcb76510	-0.022387058
95	0x3bd58ea9	0.0065172506
96	0x00000000	0.0
97	0x39db7d71	0.00041864396
98	0x3bc5ffcf	0.0060424577
99	0x3c58acc0	0.013224781
100	0xbc825d21	-0.015913548
101	0xbccce315	-0.025010625
102	0xbc02ef5c	-0.007991638
103	0xbbcbfb61	-0.006225035
104	0x3adb591d	0.0016734932
105	0x3c80ad20	0.015707552
106	0xbc71b4a2	-0.014752539
107	0xbc84e917	-0.016224427
108	0xbc3ff6ce	-0.011716558
109	0xbb53e907	-0.003233494
110	0x00000000	0.0
111	0xbb9bf6d2	-0.004759648
112	0x3b32d330	0.0027286522
113	0xbadcbffc	-0.0016841884
114	0x3c913e04	0.017729767
115	0xbc6523d2	-0.013985591
116	0x3aa1be9d	0.0012340132
117	0x3a0878c4	0.0005205984
118	0x3ce080aa	0.027405102
119	0xbc72224a	-0.014778683
120	0x3c48503d	0.012226162
121	0x00000000	0.0
122	0xbcabf331	-0.020989986
123	0xba2f8c74	-0.00066966494
124	0xbc1bdd16	-0.00951316
125	0xba8a247c	-0.0010539438
126	0x3cfba448	0.030717984
127	0xbc55ef9e	-0.0130576175

sequential_1/conv2d_8/BiasAdd/ReadVariableOp f4 [32]
0	0xbcad09eb	-0.021122893
1	0xbc1d305d	-0.00959405
2	0xbc90b82c	-0.017665945
3	0xbbf812fe	-0.0075706234
4	0x3a07d672	0.0005181796
5	0x3c4b9c5a	0.012427414
6	0x3cdf6dd3	0.027274048
7	0xbc09191b	-0.008367802
8	0xbbc2c809	-0.005944256
9	0x3b3d3f4d	0.0028876842
10	0x3c2eae15	0.010661622
11	0x3c6ce3d1	0.014458613
12	0xbb3c9cc5	-0.0028779965
13	0x3d1e5a73	0.038660478
14	0xbc0a3204	-0.008434776
15	0x3c0e84c2	0.008698644
16	0xba05fffb	-0.00051116914
17	0x3bb2e1cb	0.0054590455
18	0xbbff6cb2	-0.00779494
19	0xbbdc6750	-0.006726183
20	0xbbf4b5a8	-0.007467944
21	0x3b85f9bb	0.004088608
22	0x3c8de593	0.017321384
23	0xbb1f1f04	-0.0024279961
24	0xbb853d8d	-0.0040661753
25	0x3c8f78de	0.017513689
26	0x00000000	0.0
27	0xbc23e290	-0.010002747
28	0x3c0f5533	0.00874834
29	0xbc3edca6	-0.011649286
30	0xbbbce91f	-0.005765095
31	0xbbc83767	-0.00611012

sequential_1/conv2d_7/BiasAdd/ReadVariableOp f4 [32]
0	0xbc1ac44c	-0.009446215
1	0x3bb83e6b	0.005622675
2	0xbc78b28e	-0.0151792895
3	0x3c0facc5	0.008769219
4	0xba9dcec2	-0.0012039768
5	0xbca0b817	-0.01961903
6	0xbc1c489f	-0.009538799
7	0xbb2a3175	-0.002596942
8	0xbd282528	-0.04105106
9	0x3ba81189	0.0051290435
10	0x3cd3b16e	0.025841441
11	0x3c6d2758	0.014474712
12	0xba2c6e1d	-0.00065776875
13	0xbba71af0	-0.0050996467
14	0xbbdeadcd	-0.006795621
15	0x3c17e1e8	0.009270169
16	0x3d03742a	0.032093205
17	0xbba55a44	-0.005046161
18	0xbc1de99c	-0.009638216
19	0xbc30ff84	-0.010803107
20	0x3bd95563	0.0066324933
21	0xbcd542e0	-0.026032865
22	0x3ccfeed0	0.02538243
23	0x3c5df97f	0.013548254
24	0x3cb97c17	0.022642178
25	0xbb447f7d	-0.0029983215
26	0xbbaef8ca	-0.0053397166
27	0xbbb2ddaf	-0.0054585556
28	0xbcb2d4f3	-0.021830058
29	0x3c5f46c5	0.013627713
30	0xbd441715	-0.047873575
31	0x3cb279cf	0.021786598

sequential_1/conv2d_6/BiasAdd/ReadVariableOp f4 [32]
0	0x3cdc1e20	0.026869833
1	0x3d2966f0	0.041357934
2	0x3d42c379	0.0475497
3	0x3cab80d7	0.020935459
4	0x3c088fa4	0.008335028
5	0xbd01e243	-0.03170992
6	0xbcbafb1c	-0.022824816
7	0x3cd11807	0.025524152
8	0x3d4aeee9	0.04954425
9	0x3d058df7	0.03260609
10	0x3c8b273d	0.016986484
11	0xbd5d0293	-0.053957533
12	0xbd252182	-0.04031516
13	0xbd3f629c	-0.0467249
14	0x3c6814da	0.014165128
15	0x3c3a0720	0.011354238
16	0x3d06c0a9	0.03289858
17	0xbccd99ab	-0.025097689
18	0x3d3051cb	0.043046754
19	0x3b4e4b3b	0.0031477946
20	0x3d960073	0.073243044
21	0xbca45cae	-0.020063724
22	0x3d0c2f52	0.034224816
23	0xbd748ca9	-0.059704456
24	0x3c7c1be5	0.01538751
25	0x3c194b6f	0.009356364
26	0x3c8b0ad1	0.016972931
27	0x3d01ef7c	0.03172253
28	0xbd53d4c2	-0.051716574
29	0xbd01fe83	-0.031736862
30	0xbd0d8990	-0.034555018
31	0xbd295e15	-0.04134949

sequential_1/dense_4/MatMul f4 [128, 128]
0	0xbd8437c9	-0.06455953
1	0xbde2edda	-0.11080523
2	0x3e0edd7b	0.13951676
3	0x3e0d57bd	0.13803001
4	0x3dafd0d4	0.08584753
5	0x3d5262ed	0.051363874
6	0xbd89a17a	-0.06720252
7	0xbcbd94ca	-0.023142237
8	0x3daee975	0.08540622
9	0xbc5d20b5	-0.0134965675
10	0x3e2fcb4a	0.17167392
11	0x3c51af3f	0.01279813
12	0x3d5f0a64	0.05445327
13	0xbd26050f	-0.040532168
14	0xbdc41c2f	-0.09575688
15	0xbe10b9b6	-0.14133343
16	0x3e0e79a7	0.13913594
17	0x3cbcd5dd	0.023051197
18	0x3d6ac834	0.057319835
19	0xbdfc199a	-0.123095706
20	0x3e160eb5	0.14654048
21	0x3e1134ab	0.14180247
22	0x3db0097d	0.0859556
23	0x3d7a0545	0.06104018
24	0x3c88165d	0.016612226
25	0x3e11c4b1	0.14235188
26	0xbd453014	-0.048141554
27	0x3dec7974	0.11546603
28	0xbdf92d47	-0.12166839
29	0xbe0131cd	-0.12616654
30	0x3d93796b	0.07200893
31	0xbdddd54d	-0.108316995
32	0xbe017097	-0.12640606
33	0xbd11280b	-0.03543858
34	0x3e26370a	0.16231933
35	0xbd9ccd80	-0.076563835
36	0x3e21fa8d	0.15818234
37	0xbd9b1bec	-0.07573685
38	0xbcf61b93	-0.030042445
39	0xbdfeaf5d	-0.12435792
40	0x3cf33fcd	0.029693509
41	0x3d9f2c52	0.07772125
42	0xbe00c632	-0.12575606
43	0x3e28be9c	0.16478962
44	0x3d4479d0	0.047967732
45	0x3e0af89b	0.13571398
46	0x3dcae276	0.09906475
47	0xbdf6b209	-0.12045676
48	0x3e0125f8	0.1261214
49	0xbce7d037	-0.028297527
50	0xbe04f33f	-0.12983416
51	0x3d12751c	0.035756215
52	0x3dbd55b3	0.092448615
53	0x3d6069d5	0.05478843
54	0x3d92ad31	0.0716194
55	0xbe653975	-0.223852
56	0xbd93702d	-0.0719913
57	0x3ce0bbf6	0.027433377
58	0x3e011be5	0.12608297
59	0xbdbeb3af	-0.09311616
60	0x3dde5856	0.108566925
61	0x3c8af4bd	0.016962403
62	0xbdb6e036	-0.089294836
63	0x3d866a03	0.06563189
64	0x3d05cd5a	0.03266654
65	0x3df65301	0.120275505
66	0xbcac70d4	-0.021049894
67	0x3debdbbd	0.11516521
68	0x3d5ef1c3	0.05442978
69	0xbdfec00d	-0.124389745
70	0x3e205b50	0.15659833
71	0xbd46cf2f	-0.04853743
72	0x3df8557b	0.12125679
73	0x3e1aba52	0.15110138
74	0x3d521ad2	0.05129511
75	0xbe19ff62	-0.15038827
76	0xbdaed844	-0.08537343
77	0x3e0397ce	0.12850878
78	0x3dd2e5fb	0.102977715
79	0xbe1e93db	-0.1548609
80	0x3c341e7c	0.010993596
81	0xbdc3da2d	-0.09563098
82	0x3db198b7	0.08671706
83	0xbdd7b713	-0.105329655
84	0xbd56e023	-0.052459847
85	0x3c48bda1	0.012252242
86	0xbcf757d7	-0.030193252
87	0x3bfc751f	0.0077043916
88	0x3dcb686f	0.099320285
89	0x3da39e9a	0.07989235
90	0xbe139828	-0.14413512
91	0x3e1ac20f	0.1511309
92	0x3e29d64e	0.16585657
93	0xbdef4ca2	-0.116845384
94	0x3e08873a	0.13332835
95	0x3dda0c33	0.10646858
96	0xbc51dd03	-0.012809041
97	0xbda9605d	-0.08270333
98	0x3d897d14	0.0671331
99	0x3d93146a	0.07181628
100	0x3d71c3cc	0.059024617
101	0xbd67ecee	-0.056622438
102	0xbe0d9932	-0.1382797
103	0xbd7f529a	-0.062334634
104	0xbd7f54e6	-0.062336825
105	0x3d57407a	0.052551724
106	0xbd9a49b2	-0.075335875
107	0x3dff0748	0.12452561
108	0xbd81beed	-0.06335244
109	0xbba12887	-0.0049181613
110	0xbdd3cf27	-0.103422455
111	0xbcd97dab	-0.026549181
112	0x3dc86aaa	0.097859696
113	0xbda15fd7	-0.07879608
114	0x3e0a14bb	0.1348447
115	0xbd3c44fc	-0.045964226
116	0x3ccce451	0.025011213
117	0x3db3704c	0.08761653
118	0x3defdf15	0.117124714
119	0x3d9c5916	0.07634179
120	0x3e1ebea5	0.15502413
121	0xbe2f642f	-0.17128061
122	0x3d64a694	0.055822924
123	0x3d6719af	0.05642098
124	0xbdbbfda4	-0.091792375
125	0xbd14889f	-0.036263105
126	0x3e17d549	0.14827456
127	0xbe05e362	-0.13075021
128	0x3e17183e	0.14755341
129	0xbdd2f579	-0.103007264
130	0xbdd9d3e6	-0.106361195
131	0x3de35914	0.11100975
132	0x3defac63	0.11702802
133	0x3ccb974c	0.024852417
134	0x3c13a72d	0.009012026
135	0x3d1e5312	0.03865344
136	0x3d8055d7	0.06266373
137	0x3d1efe1c	0.038816556
138	0x3db78024	0.08959988
139	0xbdea2603	-0.114330314
140	0x3e0a727f	0.1352024
141	0xbe3d7c1a	-0.18504372
142	0xbe2c9852	-0.1685498
143	0x3dedee89	0.116177626
144	0x3e2a903e	0.16656587
145	0x3d89327a	0.06699081
146	0x3dd3999e	0.103320345
147	0x3d6a6e1c	0.057233915
148	0x3cffe7be	0.031238433
149	0x3cd99cb6	0.026563983
150	0x3d2803ee	0.041019373
151	0x3cac2e99	0.021018313
152	0xbdfc267e	-0.12312029
153	0xbddde583	-0.108347915
154	0xbd0e8e12	-0.034803458
155	0x3d86f3e7	0.065894894
156	0xbdc108ba	-0.094254926
157	0x3e33e77e	0.17568776
158	0xbd2415b6	-0.040059768
159	0xbdc0909f	-0.09402584
160	0x3e0fb03f	0.14032076
161	0x3d95a165	0.07306174
162	0x3dc61f5e	0.096739516
163	0x3e0ef707	0.13961421
164	0xbcf4511c	-0.029823832
165	0xbdfb0acf	-0.12257921
166	0x3d035880	0.032066822
167	0xbd730159	-0.059327457
168	0x3cadd298	0.021218583
169	0xbd3bb8c9	-0.04583052
170	0xbc9f3d5a	-0.019438434
171	0xbdf5195a	-0.11967726
172	0xbe0b4d68	-0.13603747
173	0x3d7d28ce	0.061806493
174	0x3de0d98b	0.10978993
175	0xbd6db9ed	-0.05803864
176	0xbdeded72	-0.11617555
177	0xbd3f74b0	-0.04674214
178	0x3d6e17b4	0.058128074
179	0xbdead1fc	-0.114658326
180	0x3e0140e9	0.12622418
181	0x3e09973f	0.13436602
182	0xbd15b328	-0.03654781
183	0x3e0b4c08	0.13603222
184	0x3e0f82cf	0.14014743
185	0x3d37e565	0.044896502
186	0x3db25c8e	0.0870906
187	0xbdd4d1f5	-0.103916086
188	0x3d7a9e00	0.061185837
189	0xbd8487c1	-0.064712055
190	0x3d71cb11	0.05903155
191	0x3e0774e9	0.13228191
192	0x3d38a062	0.045074828
193	0x3c598df5	0.013278474
194	0xbc8334aa	-0.016016323
195	0x3dba9acf	0.09111559
196	0xbe25d650	-0.16195035
197	0xbe3cc87d	-0.18435855
198	0xbe28cc0a	-0.16484085
199	0x3de43612	0.111431256
200	0xbcd31e69	-0.025771337
201	0x3ce269c3	0.027638322
202	0xbddd84fe	-0.10816382
203	0xbd016d78	-0.03159854
204	0x3c5431b0	0.0129513
205	0xbe1e9ba4	-0.1548906
206	0x3ca236f4	0.019801594
207	0xbd0b0622	-0.033941396
208	0xbd9e819e	-0.07739566
209	0xbdfc3ba9	-0.12316067
210	0xbd6e7f7a	-0.05822704
211	0x3dc383e6	0.09546642
212	0x3c59170f	0.0132501265
213	0xbdb79fc4	-0.0896602
214	0xbd02af10	-0.031905234
215	0x3d0c87d1	0.034309212
216	0x3bb24c6e	0.00544124
217	0xbd9c4fee	-0.07632433
218	0xbdec7446	-0.11545615
219	0x3dc74238	0.09729427
220	0x3dc6a536	0.0969948
221	0x3dc40dac	0.0957292
222	0x3dff1aac	0.12456259
223	0xbdfd7cac	-0.12377295
224	0xbd8fe4fb	-0.070260964
225	0xbda7888f	-0.08180343
226	0xbd38c217	-0.045106973
227	0x3e324342	0.1740847
228	0xbdf5cde5	-0.12002162
229	0x3c8ac0a5	0.016937563
230	0xbd92daec	-0.07170662
231	0xbdd74f5e	-0.10513185
232	0xbde260de	-0.11053632
233	0x3c146db5	0.009059359
234	0xbdc2a7d4	-0.09504667
235	0xbc049aaf	-0.00809352
236	0xbda26360	-0.079291105
237	0x3c91c4b9	0.017794
238	0xbd448709	-0.047980342
239	0xbd3c602d	-0.045990158
240	0xbdfab538	-0.12241596
241	0x3d6178d3	0.055046868
242	0x3db39cfc	0.08770177
243	0xbc41cc20	-0.011828452
244	0xbdf00448	-0.117195666
245	0x3cd5ca89	0.026097553
246	0xbdfb448a	-0.12268932
247	0xbdd435cd	-0.10361824
248	0x3d06a6e8	0.032874018
249	0xbc31eb23	-0.010859284
250	0xbde6c797	-0.112685375
251	0xbcfe80fa	-0.03106736
252	0x3da99502	0.08280374
253	0x3c362b3e	0.011118708
254	0xbde74272	-0.1129197
255	0x3e492647	0.19643508

sequential_1/dense_5/MatMul f4 [9, 128]
0	0xbc1b7f5c	-0.009490814
1	0x3e21b00f	0.15789817
2	0x3d034415	0.03204735
3	0xbe45a8d8	-0.1930269
4	0xbe74c48f	-0.23903106
5	0xbd64fcf7	-0.05590531
6	0xbe33a707	-0.17544185
7	0xbe126401	-0.14295961
8	0x3cc40fc0	0.023933291
9	0xbc9b5f7a	-0.018966425
10	0xbb054ef9	-0.002034126
11	0x3dac254a	0.0840555
12	0xbdd2595d	-0.10270951
13	0xbcdbc355	-0.02682654
14	0x3de19b1d	0.11015914
15	0xbe99f647	-0.30070707
16	0x3e591be4	0.21202046
17	0x3da2fdce	0.07958566
18	0x3c6ca192	0.014442818
19	0xbd8ab811	-0.06773389
20	0xbdb33cc4	-0.087518245
21	0xbe4152a4	-0.18879181
22	0x3cd188b4	0.02557788
23	0x3e0b7212	0.13617733
24	0xbdb1f847	-0.08689933
25	0xbe409cb8	-0.18809783
26	0xbe75b150	-0.2399342
27	0x3dddefaf	0.10836732
28	0x3d8871f4	0.0666236
29	0xbe2c9816	-0.16854891
30	0xbc30e715	-0.010797282
31	0x3ce38a04	0.027775772
32	0x3e5f648d	0.21815701
33	0xbe25c89c	-0.16189808
34	0x3c9faf0d	0.01949265
35	0xbd2e5615	-0.042562563
36	0xbdaeffad	-0.0854486
37	0x3d3f3b13	0.046687197
38	0xbe5114df	-0.20418118
39	0xbe55b1ee	-0.20868656
40	0x3e1df348	0.15424836
41	0x3e079ae5	0.13242681
42	0x3e13e66b	0.14443366
43	0xbc521310	-0.012821928
44	0xbe26f842	-0.1630564
45	0xbe0d93d5	-0.13825925
46	0xbdf3dbcf	-0.119071595
47	0xbe0aab9d	-0.13542028
48	0xbddc8f34	-0.10769501
49	0xbe2f2964	-0.17105633
50	0x3dec16fb	0.11527821
51	0xbdbb2f18	-0.09139842
52	0xbdd046f8	-0.10169786
53	0x3d971ab6	0.073781416
54	0xbe07ec9d	-0.13273855
55	0xbc11cb29	-0.008898535
56	0xbd112319	-0.035433862
57	0xbe10c8d0	-0.14139104
58	0x3e2b7dd4	0.16747218
59	0x3e55287c	0.20816225
60	0xbe47f9b0	-0.19528842
61	0x3cc93957	0.024563475
62	0xbd60d568	-0.05489102
63	0xbe700719	-0.23440208
64	0xbe51f145	-0.20502193
65	0x3e43bdfe	0.19115445
66	0x3e2fe4c0	0.17177105
67	0xbe4ab3ba	-0.19795123
68	0xbdb522cc	-0.088445276
69	0xbcbe9935	-0.023266414
70	0xbe63932d	-0.22224112
71	0x3e3eddb4	0.1863926
72	0xbde6ea4f	-0.112751596
73	0xbe3fea35	-0.18741687
74	0x3dd67ffa	0.10473628
75	0x3d7f6f14	0.06236179
76	0x3d4c025f	0.04980695
77	0x3e34c003	0.17651372
78	0x3d33a571	0.04385895
79	0x3b41baac	0.0029560728
80	0xbd18e433	-0.037327003
81	0x3e687579	0.22701062
82	0xba35dc00	-0.00069373846
83	0xbdedba47	-0.11607795
84	0x3da42435	0.080147184
85	0x3d82ffa8	0.06396419
86	0xbe2f90df	-0.17145108
87	0x3e130959	0.14359035
88	0x3db6f779	0.089339204
89	0xbe156310	-0.1458857
90	0x3e22930f	0.15876411
91	0x3dfa445a	0.12220068
92	0x3e0e9853	0.13925295
93	0x3e18cd0e	0.14921972
94	0x3db27420	0.08713555
95	0xbe719a4c	-0.23594016
96	0xbd15e4cc	-0.03659515
97	0x3dd4dc83	0.10393622
98	0x3e3ae5ec	0.1825177
99	0x3df33a42	0.11876346
100	0x3d9bbc79	0.07604308
101	0xbdc0b1ec	-0.09408936
102	0x3df51ecb	0.11968764
103	0xbcc93e07	-0.02456571
104	0xbe518e4a	-0.20464435
105	0xbe0dccd5	-0.13847668
106	0xbdb23b28	-0.087026894
107	0x3e02878c	0.1274702
108	0x3dd5b4d4	0.10434881
109	0x3de72462	0.11286236
110	0xbd89365c	-0.06699821
111	0x3c80f53f	0.015741942
112	0xbe4e332c	-0.20136708
113	0xbe16fbbd	-0.14744468
114	0xbd87db3e	-0.06633614
115	0xbe45ce12	-0.19316891
116	0x3e15f4f1	0.14644219
117	0x3e3745cc	0.17897719
118	0x3dfe2f40	0.12411356
119	0x3dde6773	0.10859575
120	0x3e076202	0.13220981
121	0x3e2941eb	0.16529052
122	0xbdcd79f2	-0.10033025
123	0x3c664bd9	0.014056169
124	0x3df08689	0.117444105
125	0x3e00dec9	0.12584986
126	0xbe0c9e68	-0.13732302
127	0x3aeaaaa2	0.0017903636
128	0xbe2d9c73	-0.16954212
129	0x3e48d87c	0.19613832
130	0xbdfbe094	-0.12298694
131	0x3d373acc	0.044733807
132	0xbe39cd0a	-0.18144622
133	0x3cad7447	0.02117361
134	0x3e0f2a8d	0.13981076
135	0xbe3b7cc2	-0.1830931
136	0x3d570844	0.052498117
137	0x3d640c32	0.055675693
138	0x3d2abed2	0.041685887
139	0xbda8c613	-0.08240905
140	0x3e25ab56	0.1617864
141	0x3db4b18c	0.08822927
142	0xbdaddaf8	-0.084890306
143	0x3e002230	0.12513041
144	0x3d9e043a	0.0771565
145	0xbde5da6e	-0.11223303
146	0x3d875e48	0.066097796
147	0x3d2e756c	0.04259245
148	0xbdb6c3bc	-0.08924052
149	0xbc53b1f3	-0.012920844
150	0x3df47cb0	0.11937845
151	0xbe4711da	-0.19440404
152	0x3d612cb2	0.054974265
153	0x3e07d71c	0.13265651
154	0x3e1861a2	0.14880994
155	0x3deb4929	0.114885636
156	0xbd84c61e	-0.064831
157	0xbe94f4a9	-0.2909291
158	0xbd785344	-0.060626283
159	0xbe37988a	-0.17929283
160	0x3e054188	0.1301328
161	0x3e40672c	0.18789357
162	0x3c280e49	0.010257312
163	0x3e4c207b	0.19934265
164	0x3e5c4cac	0.21513623
165	0xbe2c6c0f	-0.16838096
166	0x3dbc3236	0.091892645
167	0x3d72a4a2	0.059239037
168	0xbe092e64	-0.13396603
169	0xbe0bdbb0	-0.13658023
170	0x3da27084	0.07931617
171	0x3e366685	0.17812546
172	0xbd73a8e6	-0.059487246
173	0xbc8c1dcc	-0.017104052
174	0x3dc88146	0.09790282
175	0x3e2dbea3	0.16967253
176	0x3c6a488e	0.014299525
177	0x3e3b5af0	0.18296409
178	0xbe210894	-0.15725929
179	0xbde1a723	-0.11018207
180	0x3e23b1d9	0.15985812
181	0xbc82feb0	-0.015990585
182	0x3dd5fab7	0.10448211
183	0xbd4cc931	-0.04999656
184	0x3d35b78e	0.044364505
185	0x3df9cd86	0.121974036
186	0xbe079718	-0.13241231
187	0xbc684fe9	-0.014179208
188	0x3dfa3444	0.12217
189	0x3e35df4c	0.17760962
190	0xbe2df43e	-0.16987702
191	0x3e22cffa	0.1589965
192	0xbe8c7e2a	-0.27440006
193	0xbd1f4283	-0.03888179
194	0x3e3e058a	0.185568
195	0xbdcb8fca	-0.09939535
196	0x3de9fbb6	0.11424963
197	0xbe7bdef0	-0.24596763
198	0xbdbaaae9	-0.0911463
199	0xbe0dd790	-0.13851762
200	0x3e4bb16b	0.19891898
201	0xbe5c7d7c	-0.21532243
202	0xbe22b357	-0.15888725
203	0x3d2a9761	0.041648272
204	0x3db05e99	0.08611793
205	0x3e504fe2	0.20342973
206	0x3d63b062	0.055588134
207	0xbc7fefa9	-0.015621104
208	0x3d9a37e7	0.07530194
209	0xbe927b2f	-0.28609607
210	0x3e2fcb3f	0.17167376
211	0x3d99b71a	0.07505627
212	0xbe13780e	-0.14401266
213	0xbdcf5044	-0.10122731
214	0xbe588842	-0.21145728
215	0x3e55c5f5	0.20876296
216	0x3e2fbe1e	0.17162368
217	0x3df7cf3a	0.12100072
218	0xbe48ea0f	-0.19620536
219	0x3dc98b58	0.09841031
220	0x397eef02	0.00024312365
221	0xbe168cb8	-0.14702117
222	0xbd5c0bc9	-0.053722177
223	0x3e100bcb	0.14066999
224	0x3dfacdee	0.12246309
225	0xbbfe0700	-0.0077522993
226	0xbda8aee0	-0.0823648
227	0xbd2ad1f3	-0.04170413
228	0xbe07d8f5	-0.13266356
229	0x3e326970	0.17423034
230	0xbe1d376c	-0.15353173
231	0xbe6b3f7e	-0.22973439
232	0x3e5ad8fd	0.21371837
233	0xbdef755a	-0.11692305
234	0x3dd09da9	0.10186321
235	0xbdbcdc7a	-0.0922174
236	0x3e078b88	0.1323682
237	0xbd1203a9	-0.03564802
238	0xbe52c4c2	-0.2058287
239	0x3e4c3b21	0.19944431
240	0xbe03cde0	-0.12871504
241	0xbe158bf5	-0.1460417
242	0x3d35fb77	0.04442927
243	0x3e42cb68	0.19022906
244	0x3e0cbcae	0.1374385
245	0xbdbf3bc6	-0.09337573
246	0xbe4c752c	-0.19966573
247	0x3d3b084a	0.045662202
248	0xbcb42001	-0.021987917
249	0xbd81887e	-0.06324862
250	0xbdcd13d4	-0.100135475
251	0x3e1159d9	0.1419443
252	0xbd4f61d6	-0.050630413
253	0xbe2cce2c	-0.16875523
254	0x3db2078f	0.08692848
255	0x3e00a4a6	0.12562808

sequential_1/conv2d_7/Conv2D f4 [32, 3, 3, 32]
0	0xbd85b461	-0.06528545
1	0x3d8c9354	0.06864038
2	0x3dd76b26	0.10518484
3	0xbc5c2e5b	-0.013438786
4	0xbd8666e2	-0.06562592
5	0xbd9f8c8f	-0.07790481
6	0xbd6fdec2	-0.058562048
7	0xbd7cae52	-0.061689682
8	0x3d672539	0.056431983
9	0x3b051ee7	0.0020312609
10	0x3b410f71	0.0029458667
11	0x3d6a938d	0.05726962
12	0xbdaff6ed	-0.08592019
13	0x3d88861f	0.066662066
14	0xbd2e5aa6	-0.042566918
15	0xbd3c8e59	-0.04603419
16	0xbcc0f959	-0.023556398
17	0xbb80d40d	-0.0039315284
18	0xbd57da5c	-0.052698478
19	0xbdd7fd33	-0.10546341
20	0x3d470811	0.048591677
21	0xbdb12b77	-0.086508684
22	0x3d4cde81	0.050016884
23	0x3dcf3004	0.1011658
24	0x3d0dd70e	0.03462892
25	0xbc840edd	-0.016120369
26	0xbd3afec7	-0.04565313
27	0x3d8f08c9	0.069840975
28	0x3d604982	0.054757603
29	0xbcbc2ba8	-0.022970036
30	0xbcff8755	-0.031192461
31	0xbd934f21	-0.07192827
32	0x3daabf10	0.083372235
33	0x3d9c3d4d	0.0762888
34	0x3d4aabf2	0.049480386
35	0x3cc8a567	0.024492932
36	0xbda2f9ba	-0.07957788
37	0xbc4bbfe1	-0.012435884
38	0xbd7310b4	-0.0593421
39	0x3db9afc0	0.09066725
40	0x3dadb6d6	0.08482139
41	0x3de1622d	0.11005054
42	0xbd3243f1	-0.043521825
43	0x3d891642	0.066936985
44	0xbd3571f9	-0.044298146
45	0x3c5df75b	0.013547744
46	0xbc150791	-0.009096042
47	0xbd4eac7f	-0.050457474
48	0x3df7defd	0.121030785
49	0x3d2c2f09	0.042037044
50	0xbcfca9f2	-0.030842755
51	0x3bd71a07	0.006564382
52	0x3ca1e41c	0.019762091
53	0xbd6a96e4	-0.057272807
54	0xbcd48ef0	-0.025947064
55	0xbd13a82e	-0.03604906
56	0xbd8045a5	-0.06263284
57	0x3dd87ffd	0.10571287
58	0xbd0ae3d0	-0.033908665
59	0x3cbcb1d4	0.023034014
60	0xbd944b78	-0.07240957
61	0x3db15816	0.08659379
62	0xbd264533	-0.040593337
63	0xbca9adfd	-0.020712847
64	0x3d709217	0.058733072
65	0xbd94e1fb	-0.07269665
66	0xbd95d438	-0.07315868
67	0xbd487e3f	-0.048948523
68	0xbdb5dfce	-0.08880578
69	0xbd05c7b5	-0.03266116
70	0xbd5a5e5e	-0.05331265
71	0xbd6a6b47	-0.057231214
72	0x3bdba44b	0.006702935
73	0x3e1dda8a	0.15415397
74	0x3c452a0d	0.0120339515
75	0xbc49286c	-0.012277704
76	0x3bfac9ae	0.0076534366
77	0xbd860999	-0.06544799
78	0x3db63a67	0.08897858
79	0x3cc6cc03	0.024267202
80	0x3d815ded	0.06316743
81	0x3dcf3d4d	0.10119114
82	0xbbcc0f68	-0.0062274225
83	0xbdb4bb47	-0.08824783
84	0x3d74df40	0.05978322
85	0x3deac471	0.114632495
86	0x3e1fa659	0.155908
87	0x3d838de0	0.06423545
88	0x3d73ab85	0.059489746
89	0x3de8f20e	0.11374293
90	0xbc91ea21	-0.017811837
91	0x3dd88e75	0.105740465
92	0x3d39d97f	0.045373436
93	0x3d739bcb	0.059474748
94	0x3d2489ff	0.040170666
95	0xbd02cc87	-0.031933334
96	0x3da688ce	0.08131562
97	0x3bb2dd26	0.005458492
98	0x3dfc36f3	0.12315168
99	0xbceadd64	-0.02867002
100	0x3d430b4a	0.047618188
101	0x3d7aa62f	0.06119364
102	0xbd79115d	-0.060807575
103	0xbbc0d722	-0.005885021
104	0xb94171d0	-0.00018448313
105	0xbdb2f59b	-0.08738252
106	0x3cd9d68b	0.02659156
107	0xbbc19144	-0.0059072096
108	0xbd2c143f	-0.042011496
109	0xbdb9d283	-0.09073355
110	0xbc93c492	-0.018038068
111	0x3e0eb34a	0.13935581
112	0x3d948573	0.07252016
113	0xbcdf980d	-0.027294183
114	0x3d9432ce	0.07236253
115	0xbb1ed800	-0.0024237633
116	0xbd624289	-0.055239234
117	0x3d40f97f	0.047112938
118	0x3ca3777c	0.019954436
119	0x3cace030	0.021102995
120	0xbd06544d	-0.03279524
121	0xbddbaa59	-0.107258506
122	0x3bba2d15	0.0056816437
123	0xbbad5d13	-0.0052906363
124	0x3c476a37	0.01217132
125	0x3b890452	0.004181423
126	0xbdc688bf	-0.09694051
127	0xbd4f9a73	-0.050684404
128	0x3da1db61	0.07903171
129	0x3dfb4399	0.122687526
130	0x3e0c9afa	0.13730994
131	0x3d6a873f	0.057257887
132	0x3d7b8d88	0.06141427
133	0x3db57741	0.088606365
134	0xbd44878a	-0.047980823
135	0xbd12067e	-0.035650723
136	0x3d808a57	0.06276386
137	0xbd918a61	-0.07106472
138	0x3d3d239a	0.04617653
139	0xbd8cee40	-0.0688138
140	0x3d70e43e	0.05881142
141	0xbd71032e	-0.058840923
142	0x3d093af4	0.033503488
143	0x3e389636	0.18026051
144	0xbcf31d86	-0.029677164
145	0xbb424720	-0.0029644445
146	0xbd96faca	-0.07372053
147	0x3d2a6871	0.04160351
148	0x3da378c6	0.0798202
149	0xbd86d7ac	-0.06584105
150	0x3da183e1	0.07886482
151	0xbd9374c8	-0.07200009
152	0x3cc78fd4	0.024360575
153	0xbd79aeea	-0.060957827
154	0x3e30a1f0	0.17249274
155	0x3c1bd908	0.0095121935
156	0x3ce305f6	0.027712803
157	0x3d6c83b3	0.057742786
158	0x3caa68f7	0.020802004
159	0x3db7bbf4	0.08971396
160	0x3d2fbb48	0.042903215
161	0xbd91e27c	-0.071232766
162	0xbd72ba84	-0.059259906
163	0x3e10de09	0.141472
164	0x3ddeb54a	0.10874422
165	0xbc969994	-0.018383779
166	0x3c565e32	0.013083981
167	0xb9f9aede	-0.00047623267
168	0x3d6f03df	0.0583533
169	0x3d64f7fc	0.05590056
170	0x3b9215c8	0.004458163
171	0x3d280481	0.04101992
172	0x3df0aa6e	0.11751257
173	0x3cc6b3ee	0.024255719
174	0xbc42fcc5	-0.011901085
175	0x3de982a9	0.114018746
176	0xbccf6e04	-0.025321014
177	0x3d92e72b	0.07172998
178	0xbc994a8b	-0.018712303
179	0x3ce780e4	0.028259702
180	0xbda62da5	-0.08114175
181	0xbd836c13	-0.06417098
182	0x3ddfba9a	0.10924263
183	0x3dbe9002	0.09304811
184	0x3ca4488a	0.02005412
185	0xbd677cb9	-0.05651543
186	0x3d9e90fe	0.07742499
187	0xbe0484bc	-0.12941259
188	0x3dbe60cc	0.09295806
189	0xbd081382	-0.03322173
190	0x3dd29c5c	0.102837294
191	0x3df9eb83	0.122031234
192	0x3e0fc789	0.1404096
193	0x3de79ac4	0.11308816
194	0x3d9174d4	0.07102361
195	0xbd09b3c2	-0.033618696
196	0xbdf0085f	-0.11720347
197	0xbd132af6	-0.035929643
198	0x3db2715d	0.087130286
199	0x3e235866	0.1595169
200	0xbb95f045	-0.0045757615
201	0xbd6ddd74	-0.058072522
202	0x3d29485c	0.041328773
203	0xbd48e820	-0.049049497
204	0xbc199184	-0.009373073
205	0xbc83a515	-0.016069928
206	0x3dbfad82	0.09359266
207	0xbcbe1c44	-0.023206837
208	0x3e1096d6	0.1412004
209	0x3d6e975f	0.058249827
210	0x3dd9e7bf	0.10639905
211	0x3cf2c629	0.029635506
212	0x3daed25e	0.08536218
213	0x3d12290d	0.03568368
214	0x3de9f9d8	0.11424607
215	0xbdbe5f97	-0.09295576
216	0x3d666179	0.0562453
217	0x3cdf2990	0.027241498
218	0x3e06efa1	0.13177349
219	0x3adcf267	0.001685691
220	0xbb9c3bf7	-0.0047678906
221	0xbd5638d4	-0.05230029
222	0xbdd07787	-0.10179048
223	0x3c410a71	0.011782275
224	0xbd900fee	-0.07034288
225	0x3dfd2fba	0.12362619
226	0x3d203e02	0.039121635
227	0x3d0c838e	0.034305148
228	0xbdaf78f7	-0.08567994
229	0xbdbceb5f	-0.09224581
230	0xbd216a9b	-0.039408308
231	0x3ccf6e0d	0.025321031
232	0x3cabc543	0.020968085
233	0x3cacf486	0.021112692
234	0x3d92aee9	0.07162268
235	0x3d8baaa6	0.06819658
236	0x3dbad0d2	0.091218606
237	0x3db2bfa8	0.08727962
238	0xbd5293c1	-0.05141044
239	0x3d74013a	0.059571482
240	0x3cd75ed7	0.02629034
241	0x3dd06f2b	0.101774536
242	0x3c8289c2	0.015934829
243	0xbd5259e8	-0.051355273
244	0xbd027e2a	-0.0318586
245	0x3d042a59	0.03226695
246	0x3df582c1	0.1198783
247	0x3d6c7d57	0.05773672
248	0x3cc54539	0.02408086
249	0x3d4e4b11	0.050364558
250	0xbd5d12c9	-0.053972993
251	0xbde76e2f	-0.11300313
252	0x3ca19e3a	0.019728769
253	0x3d07ed34	0.0331852
254	0xbced73f3	-0.028985953
255	0x3d4290b8	0.047501296

sequential_1/conv2d_8/Conv2D f4 [32, 3, 3, 32]
0	0x3dc96707	0.09834104
1	0xbd641bc0	-0.055690527
2	0xbad47900	-0.0016210377
3	0x3dea12ab	0.11429342
4	0x3ce45f31	0.027877422
5	0x3d8077fe	0.06272887
6	0xbc68bac3	-0.014204684
7	0x3d6aad55	0.05729421
8	0x3d5eb847	0.05437496
9	0xbd93e3bb	-0.072211705
10	0x3dac539b	0.08414384
11	0x3de68bb4	0.11257115
12	0x3d3fce10	0.046827376
13	0xba07cb00	-0.00051800907
14	0x3d2d08c9	0.042244706
15	0x3db29998	0.08720702
16	0xbd35100f	-0.044204768
17	0xbdd6e6ea	-0.10493262
18	0x3d25685b	0.040382724
19	0x3cfe0bf7	0.031011565
20	0xbc52246c	-0.012826066
21	0xbd4f8e2a	-0.050672688
22	0x3da71951	0.081591256
23	0x3dba2205	0.0908852
24	0xbcb8f2bb	-0.02257668
25	0x3de4120a	0.11136253
26	0xbd8a7cf6	-0.06762116
27	0xbd60bc4a	-0.054867066
28	0x3c4c471a	0.012468124
29	0xbd2d39a5	-0.042291302
30	0x3d5b8399	0.0535923
31	0x3d75d77f	0.060019966
32	0x3d28cd7b	0.041211586
33	0x3d8293f5	0.06375877
34	0xbdba6ddb	-0.091029845
35	0xbc73c95f	-0.014879554
36	0xbcca534f	-0.024697928
37	0x3d8b793a	0.068102315
38	0x3d1a04c9	0.03760222
39	0x3de5f487	0.112282805
40	0x3c664a0a	0.014055738
41	0xbd9b7575	-0.075907625
42	0xbd2da36a	-0.042392172
43	0x3d9fba66	0.077992246
44	0xbc33dc79	-0.010977858
45	0x3d3528c0	0.044228315
46	0x3d9709f9	0.07374949
47	0xbdc8fb68	-0.09813577
48	0x3db31215	0.08743683
49	0xbe56560c	-0.20931262
50	0x3d673c81	0.056454185
51	0xbc9cfcc5	-0.019163499
52	0x3d9e7249	0.07736642
53	0x3d3c9a45	0.04604556
54	0x3db4b7f6	0.0882415
55	0x3c1622b3	0.009163546
56	0x3cfffa5f	0.031247316
57	0x3e012573	0.12611942
58	0xbdbf298e	-0.09334098
59	0x3d8f0b84	0.06984618
60	0x3d1625dc	0.0366572
61	0xbd4e9f6d	-0.05044501
62	0x3b95f319	0.0045760986
63	0xbdfabce3	-0.122430585
64	0x3b578e16	0.0032891086
65	0x3bc305da	0.0059516253
66	0x3cdf6b81	0.027272942
67	0xbc50ca4f	-0.012743547
68	0xbc650c86	-0.013980037
69	0x3da232ba	0.079198316
70	0x3cd35f1b	0.025802186
71	0x3d7bb6b1	0.061453525
72	0x3d98bf16	0.07458322
73	0x3d01b3e5	0.0316657
74	0x3dace7b4	0.08442631
75	0x3bf9e75f	0.0076264585
76	0x3c1d8d93	0.009616273
77	0xbc5ad250	-0.0133558065
78	0xbcc6be98	-0.024260804
79	0x3cf9761f	0.030451832
80	0xbda0c2d1	-0.07849658
81	0xbd00f5ab	-0.031484287
82	0xbdca3af5	-0.098745264
83	0xbdaea18e	-0.08526908
84	0x3d39b6ca	0.045340337
85	0xbc9e0697	-0.019290252
86	0xbde05bb7	-0.10954993
87	0x3dbee62e	0.09321247
88	0xbde3cfb3	-0.111236
89	0x3d0de3d8	0.034641117
90	0x3d2d41bc	0.042299017
91	0x3c406ed0	0.01174517
92	0xbd11f454	-0.0356334
93	0xbda80c25	-0.082054414
94	0x3d3c7be6	0.046016596
95	0xbc1a62ac	-0.009422939
96	0x3de33882	0.110947624
97	0x3e0d6401	0.1380768
98	0x3d933139	0.07187123
99	0x3cd204a6	0.025636982
100	0xbce0287c	-0.027363054
101	0x3da51a2c	0.080616325
102	0xbc53fb21	-0.012938292
103	0x3dcd029b	0.100102626
104	0xbc21b9f5	-0.009870996
105	0x3d8c44e6	0.06849079
106	0x3b2fba5d	0.0026813962
107	0xbcc36018	-0.023849532
108	0x3d95cd16	0.07314508
109	0x3d88c5d2	0.06678356
110	0x3da5cdd4	0.08095899
111	0xbd8f0097	-0.069825344
112	0xbd98d16a	-0.074618176
113	0xbc75caa8	-0.01500193
114	0x3c5a7861	0.013334365
115	0xbd158ac1	-0.03650928
116	0x3d99eb80	0.07515621
117	0x3ce5309a	0.027977277
118	0xbc3f872b	-0.011689941
119	0x3c3c4677	0.0114914095
120	0x3e00d2bb	0.12580387
121	0x3dcb87b4	0.09937993
122	0x3d10d510	0.035359442
123	0xbd255580	-0.040364742
124	0x3d78efe1	0.06077564
125	0xbb91b980	-0.004447162
126	0xbd737bb7	-0.059444156
127	0xbdde7e76	-0.10863964
128	0xbd4824d6	-0.048863254
129	0xbc60bddc	-0.013717141
130	0x3df9b8f8	0.12193483
131	0x3d018a00	0.031625748
132	0xbc882261	-0.016617956
133	0x3d8ce5b4	0.0687975
134	0x3d9c97bf	0.07646131
135	0xbdc62a8e	-0.096760854
136	0xbcf9d899	-0.03049879
137	0xbda4bad4	-0.08043447
138	0xbd018ac4	-0.031626478
139	0xbc8883d1	-0.016664417
140	0x3d81bc7f	0.06334781
141	0x3dc85e7c	0.097836465
142	0xbd3e76a6	-0.04649987
143	0xbdb8ffb0	-0.090331435
144	0x3dd6ed3b	0.10494467
145	0x3d322176	0.043488942
146	0x3db4c3d4	0.08826414
147	0x3c5b4ba4	0.013384733
148	0xbdee0767	-0.11622506
149	0x3bc3eba8	0.00597902
150	0xbd83b760	-0.064314604
151	0x3d0a0925	0.033700127
152	0xba75ef1e	-0.00093816395
153	0xbd9607a4	-0.07325676
154	0xbd6bef95	-0.05760153
155	0xbd2a5e02	-0.04159356
156	0x3cab50ef	0.020912616
157	0xbd7bf80e	-0.06151586
158	0x3dfcdd91	0.12346948
159	0xbd9b5d4f	-0.075861566
160	0xbda9648a	-0.082711294
161	0x3ce9d12c	0.028542124
162	0xbc80001f	-0.015625058
163	0xb9220914	-0.00015452906
164	0x3b471777	0.0030378976
165	0x3daa364f	0.0831114
166	0xbdcd7c57	-0.100334816
167	0x3d4641d7	0.048402634
168	0x3d98a22c	0.07452807
169	0xbdc3b851	-0.0955664
170	0x3d664b18	0.05622396
171	0xbc08ea34	-0.00835662
172	0x3d54d3a7	0.05195966
173	0x3cd0f7c0	0.025508761
174	0xbd73ba7c	-0.059504017
175	0x3b79a8c9	0.0038094989
176	0xbde976f4	-0.11399642
177	0x3cd736bd	0.026271218
178	0x3c0b0137	0.008484176
179	0x3c4ccd52	0.012500124
180	0x3d6361e4	0.055513278
181	0x3cf7d485	0.030252704
182	0x3d4d40c7	0.050110605
183	0xbdc73276	-0.097264215
184	0x3b05f0d0	0.0020437725
185	0x39b465a3	0.00034408
186	0xbcd337b6	-0.025783401
187	0x3d9c6c9e	0.076379046
188	0xbd970746	-0.07374434
189	0xbd893f2f	-0.067015044
190	0x3d8d1117	0.06888025
191	0x3df63332	0.120214835
192	0x3daba4b1	0.08381022
193	0x3dc00340	0.0937562
194	0x3cf8039a	0.030275155
195	0xbd16b499	-0.036793325
196	0x3e116678	0.14199245
197	0xbb4295d2	-0.002969135
198	0x3c8df2e5	0.017327735
199	0xbdb74fb6	-0.089507505
200	0x3d916062	0.07098462
201	0xbc23bc1f	-0.009993582
202	0xbd554ccf	-0.052075204
203	0x3dc20984	0.09474471
204	0xbcfa0fee	-0.030525174
205	0x3d965686	0.07340722
206	0xbd92214a	-0.07135256
207	0xbda35b5d	-0.079764105
208	0xbd68241c	-0.05667506
209	0x3d09367d	0.03349923
210	0x3dcc452a	0.099741295
211	0xbd6dea43	-0.058084738
212	0xbd8f7263	-0.070042394
213	0xbce69d26	-0.028151106
214	0xbde6a21c	-0.11261389
215	0xbdcb1642	-0.09916355
216	0xbe18bd1c	-0.1491589
217	0x3be0a969	0.0068561328
218	0xbd1eb244	-0.038744226
219	0xbc1dbb88	-0.00962723
220	0xbdc22e3f	-0.09481477
221	0x3d4ec277	0.050478425
222	0x3d8566e2	0.06513764
223	0xbb6dcb73	-0.0036284595
224	0xbd02cd8f	-0.031934317
225	0x3d35cca8	0.04438463
226	0x3db7e8fc	0.08979985
227	0x3e0e378e	0.1388838
228	0xbcda5c1a	-0.026655246
229	0xbd0f149f	-0.034931775
230	0x3d805caf	0.06267678
231	0xbd70de86	-0.058805965
232	0xbd4c4420	-0.049869657
233	0xbd4d5b58	-0.05013594
234	0xbe0d36d6	-0.1379045
235	0x3d96d1e0	0.07364249
236	0x3ce95ac5	0.028485665
237	0xbd579bc9	-0.052638803
238	0xbd5d668b	-0.05405287
239	0xbd7125c2	-0.0588739
240	0xbdc3cacf	-0.09560167
241	0xbda35cb4	-0.07976666
242	0xbd466009	-0.04843143
243	0x3c6464cb	0.013940047
244	0x3cfc1904	0.030773647
245	0x3ddfb62a	0.10923417
246	0x3d11fa68	0.035639197
247	0x3cb0b9a1	0.02157289
248	0xbdaacd01	-0.08339883
249	0xbd416dac	-0.047223732
250	0x3bb93c50	0.0056529418
251	0xbcfa4418	-0.030550048
252	0xbd8b6fef	-0.06808459
253	0xbd127b4d	-0.03576212
254	0x3df1ce59	0.11806936
255	0x3da897b6	0.082320616

sequential_1/conv2d_6/Relu;sequential_1/conv2d_6/BiasAdd;sequential_1/conv2d_8/Conv2D;sequential_1/conv2d_6/Conv2D;sequential_1/conv2d_6/BiasAdd/ReadVariableOp f4 [32, 3, 3, 3]
0	0xb9c41331	-0.00037398332
1	0xb9dba54d	-0.00041894094
2	0x38fe8962	0.00012137253
3	0x392b44df	0.00016333487
4	0x398a324e	0.0002635889
5	0xb94ad307	-0.00019342835
6	0xba16b3b1	-0.0005748822
7	0x389ce993	7.482166e-05
8	0xb9f6078e	-0.00046926405
9	0x39b8bfb2	0.0003523804
10	0x3941da2a	0.00018487187
11	0xba079231	-0.00051716255
12	0xb93f0acd	-0.00018219203
13	0x394ef111	0.00019735495
14	0xb9c9d196	-0.0003849386
15	0x38cef59b	9.868593e-05
16	0x3a2196ad	0.0006164115
17	0x38fb1df6	0.00011974193
18	0x399ccd9d	0.00029907833
19	0x3a1325ea	0.00056132546
20	0xb9c797c5	-0.00038069315
21	0x3809420a	3.272485e-05
22	0xb99c3707	-0.00029795637
23	0x3a0ce12f	0.0005374131
24	0x397c514d	0.0002406288
25	0xb97a903a	-0.00023895586
26	0xb8ab3449	-8.163654e-05
27	0xb9bf6b89	-0.0003651048
28	0xb97f10cc	-0.00024324952
29	0x3a14d17f	0.00056769693
30	0x3981e3c4	0.00024774496
31	0x3a3191ad	0.00067737215
32	0x39ced93d	0.00039453237
33	0x39f856ca	0.0004736691
34	0x39751395	0.00023372316
35	0xb96145f2	-0.00021483729
36	0x38480f96	4.769823e-05
37	0xb70532bc	-7.93923e-06
38	0xb9d5d02a	-0.0004078162
39	0xb99f8a36	-0.00030429818
40	0xb99c4b41	-0.00029810707
41	0x39e875d5	0.0004433828
42	0xb9390ec4	-0.00017648475
43	0xb9b3683c	-0.000342192
44	0x3a057368	0.0005090744
45	0x39290ebc	0.00016122585
46	0x39fdb7ed	0.00048392956
47	0x3907831f	0.0001292345
48	0xb91f8da4	-0.00015216187
49	0xba203d31	-0.0006112634
50	0xb9072164	-0.00012887042
51	0xb993b1e9	-0.00028170578
52	0xb9e05a18	-0.00042791734
53	0xba144c91	-0.0005657161
54	0xba02dc89	-0.0004991969
55	0xb9358552	-0.00017311171
56	0xb8317c44	-4.231582e-05
57	0xb985a2f2	-0.0002548914
58	0xb986c0c8	-0.00025702105
59	0xb9e40a11	-0.0004349505
60	0x37d34e35	2.5189578e-05
61	0x39d9274e	0.0004141875
62	0xb8a69438	-7.943105e-05
63	0x3a13dd11	0.00056405464
64	0xb94af674	-0.00019356032
65	0x3a303540	0.0006721802
66	0x3a0876ba	0.000520568
67	0xb9698095	-0.00022268512
68	0x39b0f07a	0.00033748505
69	0xb9852632	-0.00025396195
70	0x37b7f1e7	2.1927945e-05
71	0x3a308b8d	0.0006734662
72	0xb7a5e02b	-1.977392e-05
73	0x3a0833fa	0.00051957334
74	0x39cf4441	0.0003953297
75	0xb98b8e13	-0.00026618
76	0xba10bf99	-0.00055217143
77	0xb99170e3	-0.00027740662
78	0xb9568d66	-0.00020461305
79	0xb98a00ea	-0.00026322092
80	0xb9cbf4f0	-0.0003890167
81	0x3949cc5e	0.00019244986
82	0xba1d2f39	-0.00059961114
83	0x394fb8ef	0.00019809951
84	0x39d23d26	0.0004009988
85	0x39aa8eb8	0.0003253126
86	0x3941e4db	0.0001849117
87	0xb96ce01b	-0.000225902
88	0xb8581f3b	-5.15275e-05
89	0xb9d543fb	-0.00040677175
90	0xb98777cf	-0.0002583847
91	0xb9a6bd48	-0.00031803013
92	0xba2aca3e	-0.0006515122
93	0x3a1207c5	0.0005570616
94	0xb9543ffe	-0.00020241734
95	0x3899e6e0	7.338612e-05
96	0x3a365755	0.00069557625
97	0xb9b3649b	-0.00034216497
98	0x39ba7820	0.00035566185
99	0xb9ea5683	-0.00044696414
100	0xb9fa2e8d	-0.000477184
101	0xb8ab3d1c	-8.165298e-05
102	0x39994d89	0.00029240202
103	0x3835ba89	4.3327487e-05
104	0x39ac4d55	0.00032864013
105	0x3a05c72f	0.0005103228
106	0xb9aef5a2	-0.00033370877
107	0x39e31416	0.0004331178
108	0xb697236c	-4.5042743e-06
109	0xb8f24829	-0.000115529
110	0xb9f6e3aa	-0.000470904
111	0xba00ed83	-0.00049182045
112	0x391a30af	0.0001470472
113	0x39d99fb0	0.00041508442
114	0xb9cb010d	-0.0003871996
115	0x39125a18	0.00013957208
116	0xb9161346	-0.00014312295
117	0x38c05698	9.171403e-05
118	0x39d07fbb	0.00039768018
119	0x397c86ad	0.00024082763
120	0xb9dd739e	-0.00042238546
121	0xb9639d1e	-0.00021706938
122	0x3a2e1215	0.00066402677
123	0xb953977c	-0.0002017896
124	0xb9527091	-0.00020069095
125	0x3a0d8b0a	0.00053994416
126	0x3a197971	0.0005854583
127	0xb9dd7b5c	-0.00042244315
128	0xb8f9e321	-0.00011915551
129	0xb923211b	-0.00015557224
130	0x39b94952	0.00035340578
131	0x3a295598	0.0006459593
132	0xb92362e2	-0.00015581728
133	0x39a2fd6f	0.0003108787
134	0x37815231	1.5416272e-05
135	0x39927ed0	0.00027941773
136	0x3a0e6724	0.0005432239
137	0x38bcfaed	9.011277e-05
138	0xb9fe1236	-0.00048460223
139	0xb982a858	-0.00024920958
140	0x39592709	0.00020709274
141	0xb98145f9	-0.0002465693
142	0x38cbdb24	9.7206124e-05
143	0x3a24b5d6	0.0006283199
144	0xb99bd29a	-0.00029720814
145	0x39be0f03	0.0003625081
146	0x3698a7f0	4.5495035e-06
147	0x399c6aa5	0.00029834095
148	0x39c006bd	0.00036626114
149	0x39d5f607	0.0004080983
150	0xb9b2eb58	-0.0003412615
151	0xb92020bb	-0.00015270982
152	0x3956500d	0.00020438452
153	0xba13c2a0	-0.00056366064
154	0x39f6ecb4	0.00047097134
155	0x37b0f5a6	2.1095224e-05
156	0x398c5ede	0.00026773562
157	0x38c7ac99	9.521208e-05
158	0x39b75ffc	0.00034975994
159	0xb921439d	-0.00015379344
160	0x3a088bf2	0.0005208842
161	0x3a08af95	0.0005214152
162	0x3a07a1b2	0.0005173936
163	0x3970c3e4	0.00022961159
164	0x39e052a1	0.00042786173
165	0x39d86f56	0.00041281682
166	0xba02df6d	-0.00049923995
167	0x38870b1c	6.439371e-05
168	0xb9a7de4f	-0.00032018355
169	0x39f33a75	0.00046392126
170	0xb8a10105	-7.677268e-05
171	0x3a1a1240	0.0005877353
172	0xb95c5620	-0.00021012919
173	0xba024c39	-0.00049704645
174	0x39fa6156	0.00047756237
175	0x3a09d58b	0.00052579556
176	0x388869a3	6.504662e-05
177	0xb92e5434	-0.00016625301
178	0x39bc36b9	0.00035898926
179	0xb99700ff	-0.00028801707
180	0xb6eb28bf	-7.0082892e-06
181	0x39bc5faf	0.00035929444
182	0x39fd3bda	0.00048300513
183	0xb9d64cdd	-0.00040874528
184	0xb948c1e2	-0.00019145713
185	0xb9927855	-0.00027936944
186	0xb782dca8	-1.5599959e-05
187	0xba0ec142	-0.0005445668
188	0xba2a1e59	-0.00064895075
189	0xb9e06e05	-0.0004280658
190	0xb9085fb5	-0.00013005624
191	0xb95050a0	-0.00019866461
192	0x39fcd6a9	0.0004822512
193	0xb958c418	-0.00020672416
194	0xb6a27d96	-4.8425964e-06
195	0x38c87c28	9.559869e-05
196	0x3a2b07ac	0.00065242755
197	0xb8b58587	-8.655624e-05
198	0xb92646cc	-0.00015857368
199	0xba019874	-0.0004943677
200	0xb8f5ba03	-0.00011717158
201	0x39a00e07	0.0003052803
202	0xb9144810	-0.00014141225
203	0xb8d7f66a	-0.00010297897
204	0x39a0b1f3	0.0003065016
205	0x3a4801ec	0.0007629681
206	0xb9000016	-0.00012207063
207	0xb97c5f21	-0.00024068031
208	0x3947887b	0.00019028962
209	0xb92cf975	-0.00016496128
210	0x398330a6	0.00025022513
211	0x381e7e11	3.7787544e-05
212	0x3a1018a1	0.0005496834
213	0xba06c4cc	-0.00051410194
214	0xb9dc4be6	-0.0004201822
215	0xba090b9b	-0.00052278646
216	0xb98e038b	-0.0002708699
217	0xb9b48636	-0.0003443227
218	0x3a211833	0.00061452686
219	0x39cb32b6	0.0003875696
220	0xb82309d7	-3.8871392e-05
221	0x3a0bc635	0.00053319643
222	0x39a5c58b	0.00031618433
223	0x3a3f1efa	0.00072906876
224	0x39c006db	0.00036626201
225	0xb8afa3cc	-8.37516e-05
226	0xb9a22a1c	-0.00030930422
227	0x39428737	0.00018551653
228	0xb8ab0f5f	-8.1567785e-05
229	0xb9f7959c	-0.0004722298
230	0x3798d99c	1.8221144e-05
231	0x37db9e36	2.6180507e-05
232	0x3a3ae9ac	0.0007130157
233	0x38ba30cf	8.8782625e-05
234	0xba005120	-0.0004894901
235	0xb91e0f0e	-0.00015073663
236	0xb8d239a0	-0.00010024314
237	0xba13a6f5	-0.00056324835
238	0xb9801a16	-0.00024433498
239	0x39c6e221	0.00037933982
240	0xb944bd14	-0.00018762454
241	0xb9a95ca3	-0.00032303212
242	0xb9d3e1de	-0.0004041334
243	0xb769c9a4	-1.393483e-05
244	0x39fab159	0.0004781585
245	0xb9c9aded	-0.00038467292
246	0xb9a22e8b	-0.00030933725
247	0x399b720f	0.00029648884
248	0xb7aa2d56	-2.028669e-05
249	0xba017c7f	-0.0004939511
250	0xba0e10e2	-0.0005419386
251	0xb97e4aa2	-0.0002425113
252	0xba11fe7e	-0.00055692333
253	0x3a015290	0.0004933262
254	0x3800b588	3.0686642e-05
255	0x386ef22b	5.696916e-05
