app/src/main/ml/statuePredictionModel.tflite (tflite, 155620 bytes, 10 tensors)

sequential_2/dense_5/BiasAdd/ReadVariableOp f4 [15]
0	0x3c7b27a1	0.0153292725
1	0xbd1ff8b6	-0.03905555
2	0xbc9dad40	-0.019247651
3	0xbad69acb	-0.0016373036
4	0x3bc50381	0.0060123806
5	0xbc1a9804	-0.009435657
6	0x3b889cba	0.004169074
7	0xbb6ed2f3	-0.0036441654
8	0x3cd8d5c1	0.026469113
9	0xbd066c84	-0.032818332
10	0x3d0f69dc	0.035013065
11	0xbcaf4067	-0.021393014
12	0x3cee5a89	0.029095905
13	0xbc0c2339	-0.00855332
14	0xbd5dc422	-0.054142125

sequential_2/dense_4/BiasAdd/ReadVariableOp f4 [128]
0	0x00000000	0.0
1	0xbc7e911f	-0.015537529
2	0x00000000	0.0
3	0xbc2e7be0	-0.010649651
4	0xbc23834c	-0.009980034
5	0xbc7baf76	-0.015361657
6	0xbca71f83	-0.020400768
7	0x3b8ec06d	0.004356435
8	0x00000000	0.0
9	0xbcb6b732	-0.022304151
10	0xbc6008f9	-0.013674014
11	0xbcc6817b	-0.024231663
12	0xbbea9d71	-0.0071598818
13	0x3c645261	0.013935656
14	0x3ca45694	0.020060815
15	0x3c561133	0.013065624
16	0xbc9517d9	-0.018199848
17	0x3c1e51f8	0.009663098
18	0x3cd2bfff	0.025726316
19	0x3cf42237	0.029801471
20	0xbca27262	-0.019829933
21	0xbc2c909b	-0.0105325235
22	0x00000000	0.0
23	0xbc0ce8b5	-0.008600404
24	0xbcc9381d	-0.02456289
25	0xbc0fe459	-0.00878247
26	0xbc0756cd	-0.008260441
27	0x3ca6ee84	0.020377405
28	0xbbd1738f	-0.0063919495
29	0x00000000	0.0
30	0x3d0e5522	0.034749158
31	0x3c47879f	0.012178331
32	0xbc230113	-0.009948987
33	0xbc4896c5	-0.0122429775
34	0x3afe6d35	0.0019411208
35	0xbb4cf472	-0.003127363
36	0xbc541504	-0.012944464
37	0xbc72fdc0	-0.0148310065
38	0xbc6c58d5	-0.014425476
39	0xbb817889	-0.0039511365
40	0x3d1d68a6	0.03842988
41	0x3c963d65	0.018339822
42	0xbb80b752	-0.0039281035
43	0x3c2cfd64	0.01055846
44	0xbc565571	-0.013081894
45	0x00000000	0.0
46	0x3d1f2a98	0.03885898
47	0xbb6bed91	-0.0035999755
48	0x00000000	0.0
49	0x3cd5a330	0.02607879
50	0x3c4295f3	0.011876571
51	0xbcefc917	-0.029270692
52	0x3cc66bdd	0.024221355
53	0x3cbc229a	0.022965718
54	0xbc3ea94b	-0.011637042
55	0xbb2cf710	-0.0026392378
56	0x3ab1cb65	0.0013564645
57	0xbc362013	-0.0111160455
58	0x3b69a7f0	0.0035653077
59	0xbc4fcdb5	-0.012683322
60	0xbcf087b7	-0.029361589
61	0xbbc8e4e8	-0.0061308034
62	0x00000000	0.0
63	0xba31812b	-0.00067712617
64	0xbc3d9506	-0.0115711745
65	0x00000000	0.0
66	0xbc60fbe8	-0.013731934
67	0x3c38bff8	0.011276238
68	0xbc20e669	-0.009820559
69	0x39e8a53f	0.00044373606
70	0xbbf9a8d4	-0.007619003
71	0x00000000	0.0
72	0xb9b3c0bb	-0.00034285136
73	0xbc17a959	-0.009256684
74	0x3cdcbbd8	0.02694504
75	0xbc8cec91	-0.017202647
76	0x3cc52baa	0.024068672
77	0xb9872d1e	-0.00025782821
78	0xbbc921c5	-0.006138059
79	0x3c998a50	0.01874271
80	0x3c1dfd75	0.009642948
81	0x3d01e9ea	0.03171722
82	0x3ccddba8	0.025129154
83	0x3c96fb1f	0.01843029
84	0xbcb7743b	-0.02239429
85	0x3c308161	0.010773034
86	0x3ccbc347	0.024873389
87	0xbc11a59e	-0.008889584
88	0xbc4058a9	-0.011739888
89	0x00000000	0.0
90	0xbd03dc3e	-0.03219246
91	0xbc31522f	-0.010822817
92	0xbc3eebb9	-0.01165288
93	0xba4bb3fa	-0.0007770654
94	0xbbe157b4	-0.00687691
95	0x3ca52eef	0.020163981
96	0xbc5b7736	-0.013395121
97	0x3c9f86a7	0.019473387
98	0x00000000	0.0
99	0x3c6971d2	0.014248328
100	0x3b9f1639	0.004854944
101	0x3bbd3b1d	0.005774869
102	0xbbc1ab73	-0.005910331
103	0xbb64c2ed	-0.0034906224
104	0x3bbd065f	0.0057685818
105	0x3bee11cb	0.0072653047
106	0x3c178484	0.009247903
107	0x3a2a87c8	0.00065052183
108	0xba9a9334	-0.0011793138
109	0xbba5f649	-0.00506476
110	0xbc14a62e	-0.009072823
111	0x3cffdff6	0.031234723
112	0x00000000	0.0
113	0x3c27ce6f	0.010242089
114	0x3a683385	0.00088577747
115	0xbc19b5b1	-0.0093816975
116	0xbb8704b6	-0.0041204346
117	0x3a215dc8	0.0006155637
118	0x3d29b13c	0.04142879
119	0x00000000	0.0
120	0xbc27d136	-0.010242751
121	0x3c229384	0.009922866
122	0xbc9d9378	-0.019235358
123	0xbbd7fc8e	-0.006591386
124	0xbc2d2221	-0.010567219
125	0x3b26dfb5	0.002546293
126	0xbc1182c3	-0.008881274
127	0xbc4c34f2	-0.012463795

sequential_2/conv2d_8/BiasAdd/ReadVariableOp f4 [32]
0	0x3c22091f	0.00988987
1	0xbac875d5	-0.0015293906
2	0x36894980	4.0914747e-06
3	0x00000000	0.0
4	0xbc394a63	-0.011309239
5	0xbc6e9595	-0.01456203
6	0xbbb8f4ba	-0.005644408
7	0xbca2657e	-0.019823786
8	0x3d0e51bb	0.034745913
9	0xbb7480d0	-0.0037308224
10	0x00000000	0.0
11	0xbbe7273c	-0.0070542376
12	0xbbccc589	-0.006249134
13	0xbbb12c75	-0.005406911
14	0xbc4cd3a8	-0.012501635
15	0xbc387674	-0.01125871
16	0x3c98a218	0.01863198
17	0xbc7598d3	-0.014990049
18	0xbc3ec135	-0.011642744
19	0xbb3fedd9	-0.0029286055
20	0xbbf1d50b	-0.007380133
21	0x3d0ebd39	0.034848426
22	0x3c0e456e	0.0086835455
23	0x3b4fa888	0.0031686146
24	0xbc548b03	-0.012972596
25	0x3c323845	0.0108776735
26	0xbb891450	-0.0041833296
27	0xbc2d487e	-0.0105763655
28	0x3c6fbb6f	0.01463209
29	0x3c787008	0.015163429
30	0x3d097e1c	0.033567533
31	0xbca676ca	-0.020320315

sequential_2/conv2d_7/BiasAdd/ReadVariableOp f4 [32]
0	0x3c3a56e0	0.011373252
1	0x3bdfae2e	0.0068261838
2	0x3c183332	0.00928955
3	0x3b877c5c	0.004134698
4	0x3c9219ff	0.017834662
5	0x3a8616be	0.0010230166
6	0xbc10b216	-0.0088315215
7	0xbbc0a881	-0.005879462
8	0x3c851805	0.016246805
9	0x3cb2e573	0.021837926
10	0x3c710379	0.014710301
11	0xbcc8e374	-0.02452252
12	0xbbd391c5	-0.006456586
13	0xbc3ba38a	-0.011452565
14	0x3c5f2b93	0.013621229
15	0x3b9f81ba	0.0048677595
16	0xbcf1affa	-0.029502857
17	0xbc480b21	-0.012209685
18	0xbc0986d7	-0.008393965
19	0x3b281b84	0.0025651166
20	0xbc26ea33	-0.010187673
21	0xbbbfdd7c	-0.0058552604
22	0xba7f7012	-0.0009744178
23	0x3bdf4285	0.0068133497
24	0xbb3654f9	-0.0027821644
25	0xbcad578d	-0.021159912
26	0x3bbed5f2	0.005823844
27	0x3b5b6ebe	0.0033482756
28	0xbc138f28	-0.009006299
29	0xbc0f9285	-0.00876296
30	0xbc4b74d9	-0.012417995
31	0x3c345ccb	0.011008452

sequential_2/conv2d_6/BiasAdd/ReadVariableOp f4 [32]
0	0x3cfb4533	0.030672645
1	0x3c1b9b87	0.00949753
2	0x3d2d09ec	0.04224579
3	0x3c8a1e94	0.016860284
4	0x3c3a112a	0.011356631
5	0xbcabe8c2	-0.020985011
6	0x3d016ef7	0.031599965
7	0x3d3a0af5	0.045420606
8	0x3daad708	0.08341795
9	0xbd26ec59	-0.040752742
10	0x3c3bdf0c	0.011466753
11	0xbc6f7e4b	-0.014617513
12	0xbc429d99	-0.0118783945
13	0xba4adea0	-0.0007738862
14	0xbbc04597	-0.0058676708
15	0x3ca00d67	0.01953764
16	0x3b316cd7	0.002707293
17	0xbcb75223	-0.022378033
18	0x3d007774	0.03136392
19	0x3cb035f9	0.021510111
20	0x00000000	0.0
21	0x3c3b9b50	0.011450604
22	0xbd5967a1	-0.053077344
23	0x3b1710a0	0.002305068
24	0x3ceceff2	0.028923009
25	0x3d188338	0.037234515
26	0xbc379b3a	-0.0112064425
27	0xbcc131e7	-0.023583366
28	0xbc6dfb92	-0.014525311
29	0xbcbb41e3	-0.022858566
30	0x3c586135	0.01320677
31	0x3ce7eb42	0.028310422

sequential_2/dense_4/MatMul f4 [128, 128]
0	0x3d4dc254	0.050234154
1	0x3ce37bb0	0.02776894
2	0x3e07c191	0.13257433
3	0x3d77b860	0.060478568
4	0x3d7f4a58	0.06232676
5	0xbd5fefa2	-0.05467189
6	0x3e05c32d	0.13062735
7	0x3c266600	0.010156155
8	0x3de065da	0.10956927
9	0xbdc5b5d4	-0.096538216
10	0x3d74bae8	0.05974856
11	0xbdb1aaa0	-0.08675122
12	0xbdac1968	-0.08403283
13	0x3d9c6614	0.07636657
14	0xbccb14d0	-0.024790198
15	0x3e119137	0.14215551
16	0xbe11c24e	-0.14234278
17	0xbd8e4546	-0.069468066
18	0xbe0294f4	-0.12752134
19	0x3ab84580	0.0014058799
20	0xbdb9060e	-0.09034358
21	0xbd3a47c8	-0.045478612
22	0xbe16122a	-0.14655367
23	0xbd32ad32	-0.043622203
24	0xbbffe580	-0.007809341
25	0xbb0b3a80	-0.0021244586
26	0xbc9e5998	-0.019329831
27	0xbccd7200	-0.025078773
28	0xbe096df7	-0.13420855
29	0x3c3ab380	0.011395335
30	0xbd807fe2	-0.06274392
31	0xbd2caf70	-0.042159498
32	0xbd95dc99	-0.07317466
33	0x3dda110a	0.10647781
34	0x3dc084bc	0.09400317
35	0x3c08d960	0.0083526075
36	0x3d835766	0.06413154
37	0x3cdfdd58	0.027327225
38	0xbd96ef36	-0.073698446
39	0x3c612080	0.013740659
40	0x3bb88000	0.005630493
41	0x3d79bedc	0.060973033
42	0x3deafb0e	0.11473666
43	0x3df08d3e	0.1174569
44	0xbde72b63	-0.11287572
45	0xbdc6bc4e	-0.09703885
46	0x3df68fda	0.12039156
47	0xbdfa13b6	-0.12210791
48	0x3e054285	0.13013656
49	0x3db482b8	0.08813995
50	0xbe1740f6	-0.14770874
51	0xbde7526d	-0.11295018
52	0xbdb57658	-0.08860463
53	0xbdeb503a	-0.114899114
54	0xbe0625fb	-0.13100426
55	0x3e08574d	0.13314553
56	0x3d57c624	0.052679196
57	0x3d0319b0	0.03200692
58	0xbe08daff	-0.1336479
59	0xbdd3f0c1	-0.103486545
60	0x3dcf36e2	0.1011789
61	0xbd33a4c0	-0.04385829
62	0xbe15dad9	-0.14634265
63	0xbd9660b3	-0.07342663
64	0xbda17ed1	-0.078855164
65	0xbdeb6354	-0.11493555
66	0xbcd02028	-0.025405958
67	0x3ddcb0ea	0.10775931
68	0x3d3ffa90	0.046869814
69	0xbd9e2de0	-0.07723594
70	0xbd0cc2e8	-0.034365565
71	0xbdba8e3d	-0.09109161
72	0xbe179b9d	-0.14805456
73	0x3dbe0f18	0.09280223
74	0x3de88616	0.113537
75	0x3de18b8a	0.11012943
76	0x3e04fa75	0.12986167
77	0x3d2995c4	0.041402593
78	0x3cb02580	0.021502256
79	0xbd91dac3	-0.071218036
80	0x3e041513	0.12898664
81	0x3c126cb0	0.008937046
82	0xbd09fcfa	-0.033688523
83	0xbe08b82d	-0.13351507
84	0x3d3a32cc	0.0454586
85	0xbe0850a3	-0.1331201
86	0xbd1afeac	-0.03784053
87	0x3b1a5bc0	0.0023553222
88	0xbda14a27	-0.078754716
89	0xbe1021c9	-0.14075388
90	0xbc12ad70	-0.008952484
91	0x3cf04810	0.029331237
92	0xbdb085b3	-0.08619251
93	0xbcde0d28	-0.027105883
94	0x3c8ea7e8	0.017414048
95	0x3d465100	0.04841709
96	0xbd8f61ee	-0.070011005
97	0x3de6bf96	0.11267011
98	0x3df1bdce	0.118037805
99	0x3dfd1326	0.12357168
100	0x3c2f3250	0.010693148
101	0xbd1b5584	-0.03792335
102	0x3d8dc8c0	0.06923056
103	0x3d989be8	0.07451612
104	0x3b016dc0	0.0019749254
105	0xbd6d28a2	-0.05790008
106	0x3d617cf0	0.05505079
107	0xbe0d4cda	-0.13798848
108	0xbe0663c6	-0.13123998
109	0x3db6d090	0.08926499
110	0x3dbb4b24	0.09145191
111	0xbe02cbde	-0.12773082
112	0xbd089a72	-0.033350416
113	0x3db51836	0.088425085
114	0x3d85633a	0.065130666
115	0x3c9ac950	0.018894821
116	0x3d8109fe	0.06300734
117	0x3e04d63f	0.12972353
118	0xbd31497c	-0.04328297
119	0xbdfc9072	-0.12332238
120	0xbd86187d	-0.065476395
121	0xbd834fce	-0.06411706
122	0x3dfef466	0.12448959
123	0xbd15bbf4	-0.0365562
124	0x3bcfe320	0.006344214
125	0x3db8f4de	0.0903108
126	0x3d45d97c	0.048303112
127	0x3dbab700	0.09116936
128	0xbd73dc5a	-0.059536316
129	0x3e32020e	0.17383596
130	0xbd19acf9	-0.037518475
131	0x3cb7af88	0.022422567
132	0xbc2d2380	-0.010567546
133	0x3dde6677	0.10859387
134	0xbdbd8eb5	-0.09255735
135	0x3e4cb9e8	0.19992793
136	0x3cc180a0	0.023620903
137	0x3e27a748	0.16372406
138	0x3c3e8500	0.011628389
139	0x3e023b59	0.12717952
140	0xbe0d5dda	-0.13805333
141	0x3e08a4e2	0.13344148
142	0xbdee4c77	-0.11635678
143	0x3d1177a3	0.035514485
144	0x3c9cdbe0	0.019147813
145	0x3e266441	0.16249181
146	0x3dbe0c93	0.09279742
147	0xbc6b67cc	-0.014368009
148	0xbbcaa5dd	-0.006184323
149	0xbcad2079	-0.021133648
150	0xbd83e173	-0.064394854
151	0x3e16d003	0.14727788
152	0x3dfa6794	0.12226787
153	0x3e11d644	0.14241892
154	0x3d08e04a	0.033417024
155	0xbb302de1	-0.0026882815
156	0x3dce14e7	0.100625806
157	0x3e5c4e23	0.21514182
158	0x3d958d0a	0.07302292
159	0xbdb404f7	-0.087900095
160	0x3dda49f3	0.10658636
161	0x3d8cada5	0.068690576
162	0xbd8239eb	-0.06358703
163	0xbdb1c6c1	-0.086804874
164	0x3e06c302	0.13160327
165	0x3e748711	0.23879649
166	0x3e0657da	0.1311945
167	0xbddc9378	-0.10770315
168	0xbc991a62	-0.018689338
169	0x3d0d6658	0.03452143
170	0xbccb2dc8	-0.024802104
171	0x3dcd3492	0.100197926
172	0xbcb173aa	-0.021661598
173	0xbdd450a4	-0.103669435
174	0x3cc4c4fb	0.024019709
175	0xbe0111bb	-0.1260442
176	0xbcd003e7	-0.025392486
177	0x3db19d89	0.086726256
178	0x3cbb16fa	0.022838105
179	0x3dac5ae9	0.08415777
180	0x3d08f1e7	0.03343382
181	0x3d8a755a	0.06760664
182	0xbdbbdcb7	-0.091729574
183	0x3dfa78fa	0.12230106
184	0xbd2c8a53	-0.042124104
185	0xbdbffdc1	-0.093745716
186	0x3ddf2312	0.10895361
187	0x3e0fb967	0.14035569
188	0x3e0be544	0.13661677
189	0x3d813e6e	0.06310736
190	0xbdfd9fcb	-0.12383994
191	0x3e2acfae	0.16680786
192	0xbdd9d621	-0.10636545
193	0xbca64f7a	-0.02030157
194	0xbcb95770	-0.022624701
195	0xbe01b366	-0.12666091
196	0x3d0c4120	0.034241796
197	0xbd9eaba8	-0.077475846
198	0x3da7f822	0.082016245
199	0xbdc731df	-0.09726309
200	0xbdbcd5fc	-0.09220502
201	0x3d9f9459	0.07791967
202	0x3d0afef8	0.033934563
203	0xbcf682ab	-0.030091604
204	0x3d82e8ba	0.06392045
205	0x3d8e4e93	0.069485806
206	0xbe061ea8	-0.13097632
207	0x3cd578a5	0.026058504
208	0xbd83544e	-0.06412564
209	0x3c945744	0.018108018
210	0x3e02474c	0.1272251
211	0x3e13cc4f	0.14433406
212	0xbe17107e	-0.14752385
213	0xbd8dfb23	-0.06932666
214	0xbd6e9872	-0.058250852
215	0x3d9c5fa2	0.07635428
216	0xbdcff9c2	-0.101550594
217	0x3e1a5273	0.15070514
218	0xbe08adc9	-0.13347544
219	0x3c72953a	0.014806086
220	0xbe0ebd64	-0.13939434
221	0x3d404065	0.04693641
222	0xbd0ad6a8	-0.03389612
223	0x3bd20612	0.006409415
224	0xbb90c524	-0.0044180322
225	0x3dc00fb7	0.09377997
226	0x3e00f262	0.12592462
227	0x3e181b6f	0.14854215
228	0x3d2b43c9	0.04181269
229	0x3db64996	0.08900754
230	0x3d7e4ea7	0.062086727
231	0xbcc7376c	-0.02431842
232	0xbcfa5678	-0.03055881
233	0xbcfa1521	-0.030527653
234	0x3b011380	0.001969546
235	0xbe097923	-0.13425116
236	0xbd86abfa	-0.06575771
237	0xbe09c016	-0.13452181
238	0x3c370000	0.011169434
239	0x3e07f2e0	0.13276243
240	0xbd1d1517	-0.03835019
241	0x3d87b0c3	0.066255115
242	0xbdefc4ad	-0.11707435
243	0xbc833e64	-0.016020961
244	0x3db4c20f	0.08826076
245	0xbddef9cf	-0.10887491
246	0xbda9d299	-0.082921214
247	0x3df8d56e	0.121500835
248	0x3c8e90f5	0.017403105
249	0xbde5d8df	-0.112230055
250	0xbe0086e6	-0.1255146
251	0xbcb52f2b	-0.022117218
252	0xbdda62e3	-0.106633924
253	0xbd8d3c14	-0.068962246
254	0xbdd3751f	-0.103250735
255	0x3c0f1c1a	0.008734727

sequential_2/dense_5/MatMul f4 [15, 128]
0	0x3e32f4bd	0.17476173
1	0xbe1075ed	-0.14107485
2	0xbe478012	-0.19482449
3	0x3bda2e38	0.0066583417
4	0x3e1fc539	0.15602578
5	0xbdae6a92	-0.085164204
6	0x3d056d3d	0.03257488
7	0xbcb1ccb8	-0.021704063
8	0xbd9cd9aa	-0.076587036
9	0xbe36c9c2	-0.17850402
10	0xbde82802	-0.11335756
11	0x3df3d1cc	0.1190525
12	0x3e30a846	0.17251691
13	0x3e31732f	0.17329095
14	0x3e349d88	0.17638218
15	0xbd237623	-0.039907586
16	0x3c4f56b3	0.012654948
17	0xbd82e3ca	-0.063911036
18	0xbe1975c9	-0.14986338
19	0x3e393a3f	0.18088625
20	0x3da3bb36	0.07994692
21	0x3db3359e	0.08750461
22	0x3dc07156	0.09396617
23	0xbd4829bb	-0.048867922
24	0xbe654b16	-0.22391924
25	0xbd2384d6	-0.039921604
26	0xbc1d67df	-0.009607284
27	0xbd91a734	-0.071119696
28	0x3d855337	0.065100126
29	0xbdc9450a	-0.09827621
30	0xbd35d636	-0.04439374
31	0x3e1fa4b7	0.15590177
32	0xbddada1d	-0.10686133
33	0x3d5be7cf	0.053687867
34	0xbdfb5955	-0.12272898
35	0x3e0c8c8e	0.13725492
36	0xbe5c1b05	-0.21494682
37	0x3e10d677	0.14144312
38	0x3cca1703	0.024669176
39	0xbe84d124	-0.25940812
40	0x3e148a7b	0.14505951
41	0xbdc8a286	-0.09796624
42	0xbcbfac3c	-0.023397557
43	0x3d88bb71	0.066763766
44	0x3da09fae	0.078429565
45	0x3c5f3a90	0.013624802
46	0x3d49e1e3	0.049287688
47	0xbe2ece16	-0.17070803
48	0x3cfbd6e8	0.030742124
49	0xbdbfc78e	-0.09364234
50	0x3db86a4a	0.09004648
51	0xbdae4092	-0.085084096
52	0xbde99e56	-0.11407153
53	0xbe42dd09	-0.1902963
54	0x3d84bd3c	0.06481406
55	0xbe887704	-0.26653302
56	0xbd1f1658	-0.038839668
57	0xbe185a40	-0.14878178
58	0x3e8547ab	0.2603124
59	0xbd85e707	-0.065382056
60	0x3d559c57	0.05215105
61	0xbe1a5eaa	-0.15075174
62	0x3e34649f	0.17616509
63	0xbe209b64	-0.15684277
64	0x3df1eefc	0.11813161
65	0x3deaa892	0.114579335
66	0x3d4acf9d	0.0495144
67	0x3da17fe2	0.0788572
68	0x3c8a8218	0.016907737
69	0xbc6fcc38	-0.014636092
70	0xbc943372	-0.018090937
71	0xbd814604	-0.063121825
72	0xbd830ec4	-0.06399301
73	0xbdb9e0c3	-0.09076073
74	0x3c11aee1	0.008891792
75	0x3d7b5123	0.061356675
76	0xbe0ef66e	-0.13961193
77	0x3e007c06	0.12547311
78	0x3dc14c9c	0.0943844
79	0xbd8061c0	-0.06268644
80	0xbe02cc29	-0.12773193
81	0x3cc54c06	0.024084102
82	0xbe442511	-0.19154765
83	0x3dc28065	0.094971456
84	0xbde4b5bb	-0.11167475
85	0xbdd32557	-0.103098564
86	0x3d66a6c7	0.056311395
87	0xbe0670d3	-0.13128977
88	0xbe0cf5d9	-0.13765658
89	0xbd7d5738	-0.061850756
90	0xbe5de8de	-0.21670863
91	0x3d933027	0.07186919
92	0x3dad35d7	0.08457535
93	0x3d8d10fd	0.06888006
94	0x3e475bb1	0.19468571
95	0x3d042ed7	0.032271232
96	0x3da7b0cc	0.08188018
97	0x3d865d30	0.06560743
98	0xbe4b9c7b	-0.19883911
99	0x3e10124e	0.14069483
100	0x3dcecdff	0.100978844
101	0x3e00bdf9	0.12572469
102	0x3e40d107	0.18829738
103	0x3e334b0a	0.17509094
104	0x3e59bb7f	0.2126293
105	0x3e443669	0.19161381
106	0xbe2f7941	-0.17136098
107	0xbe00c8ff	-0.12576674
108	0xbd9f4762	-0.07777287
109	0x3d91571d	0.07096694
110	0xbccedf13	-0.025252854
111	0x3dbc7f4d	0.09203968
112	0xbe23bed4	-0.15990764
113	0x3e30206c	0.17199868
114	0x3c6b606e	0.014366252
115	0xbe2071f4	-0.1566847
116	0xbe08430a	-0.13306823
117	0xbe21e125	-0.15808542
118	0x3e5c2e68	0.21502078
119	0x3e07c3e5	0.13258322
120	0xbd996f8c	-0.07491979
121	0x3e00d8c6	0.12582693
122	0xbe2b3916	-0.16720995
123	0x3d4a709e	0.049423806
124	0xbbaf9800	-0.005358696
125	0x3e0455cf	0.12923358
126	0xbe0735e7	-0.13204156
127	0xbdf6588d	-0.120286085
128	0x3e164e7f	0.14678381
129	0x3e127ec6	0.14306173
130	0x3dd3d132	0.10342635
131	0x3d8129e8	0.06306821
132	0xbe762ec1	-0.24041273
133	0x3d1135e6	0.035451792
134	0x3d9fb445	0.077980556
135	0xbe2b536f	-0.16731046
136	0xbd9f1584	-0.07767776
137	0x3e0f83cb	0.14015119
138	0xbca3c042	-0.019989137
139	0x3de72900	0.11287117
140	0xbe24612d	-0.16052695
141	0x3e3bd7e4	0.18344074
142	0xbc6ca72c	-0.014444154
143	0xbe770974	-0.241247
144	0x3e16111d	0.14654966
145	0x3e335ab0	0.17515063
146	0xbd5d9d46	-0.054105066
147	0x3b9c0a2f	0.004761956
148	0xbdefc8d7	-0.11708229
149	0x3cd1ce67	0.025611116
150	0x3a9cb800	0.0011956692
151	0x3b79917b	0.0038081098
152	0xbd8f1297	-0.069859676
153	0x3e40f12d	0.18842001
154	0xbe3703bd	-0.1787252
155	0xbe2f6c73	-0.17131214
156	0xbe39a29c	-0.18128437
157	0xbe488131	-0.19580533
158	0xbe164e5d	-0.1467833
159	0xbdb95b3d	-0.090506054
160	0x3de469c3	0.11152985
161	0x3d7cd189	0.061723266
162	0xbe5cffd7	-0.2158197
163	0x3df766f3	0.12080183
164	0x3afa7ec4	0.0019111265
165	0x3de02e46	0.10946326
166	0xbe16f30e	-0.14741156
167	0x3d755b85	0.059901733
168	0xbdb50b0d	-0.088399984
169	0xbe673cc3	-0.22581773
170	0xbdac11d0	-0.08401835
171	0x3c10111e	0.008793144
172	0xbcee3190	-0.029076368
173	0x3d66ca1c	0.05634509
174	0x3e36c8d4	0.17850047
175	0xbde48301	-0.111577995
176	0x3afdbf80	0.001935944
177	0x3e60a931	0.21939541
178	0xbdc1ad98	-0.094569385
179	0xbd9ecf7f	-0.077544205
180	0x3e35f096	0.17767558
181	0xbd1e90e9	-0.038712416
182	0xbdf2dae4	-0.11858156
183	0xbe19f1ac	-0.15033597
184	0x3dcfd1ad	0.10147414
185	0x3dff86f7	0.124769144
186	0xbdae0e09	-0.08498771
187	0x3dfacff5	0.12246696
188	0x3d9debc3	0.077109836
189	0xbe19c952	-0.15018204
190	0x3d9e74f2	0.07737149
191	0x3e08bd4d	0.13353463
192	0x3d31418e	0.04327541
193	0x3bce5680	0.0062969327
194	0x3e5001c4	0.20313174
195	0xbe76b775	-0.24093421
196	0x3d266eb4	0.04063292
197	0xbe4d5f20	-0.20055819
198	0xb9600caa	-0.00021367022
199	0xbe3770e2	-0.17914155
200	0x3d25bddb	0.040464263
201	0xbe3b2482	-0.18275645
202	0xbe170689	-0.14748587
203	0x3e144acc	0.14481658
204	0x3d6e07ab	0.05811278
205	0x3dd38bb2	0.10329379
206	0xbaff85b1	-0.0019494799
207	0xbe561682	-0.20907024
208	0xbe0a3327	-0.13496076
209	0x3e0b390e	0.13595983
210	0xbdbf5509	-0.09342391
211	0xbda1ab95	-0.07894055
212	0x3e8f77e2	0.2802115
213	0xbe2fcb8f	-0.17167495
214	0x3df948a2	0.12172057
215	0xbcf43d80	-0.029814482
216	0x3ba7d4da	0.0051218094
217	0xbe128f56	-0.14312491
218	0x3de6241a	0.112373546
219	0x3e26835c	0.16261047
220	0xbdb59033	-0.088653944
221	0xbdba5f61	-0.09100223
222	0x3d4b56a9	0.049643192
223	0x3d357cd5	0.044308502
224	0x3bf0ad03	0.0073448434
225	0xbdb35a6d	-0.08757482
226	0x3dfd3346	0.12363295
227	0xbd27b754	-0.04094632
228	0x3e2a0cfa	0.16606513
229	0x3dc2bdcc	0.09508857
230	0x3d6bd0b4	0.05757208
231	0xbda8ce1d	-0.08242438
232	0x3d1dc1f5	0.03851505
233	0xbe1d80ae	-0.15381119
234	0xbd40463f	-0.046941992
235	0xbd59b94f	-0.05315524
236	0x3e2ab1ed	0.16669436
237	0x3ce37e53	0.027770197
238	0xbe0f7cf1	-0.14012505
239	0x3d44f305	0.048083324
240	0x3d1a491c	0.03766738
241	0xbab8cc0d	-0.0014098898
242	0xbe78f41e	-0.24311873
243	0x3dda8cd3	0.10671391
244	0xbe6656bc	-0.22494024
245	0xbe2735c5	-0.16329105
246	0xbe1f064c	-0.15529746
247	0xbd46d684	-0.04854442
248	0xbd71b7de	-0.05901324
249	0x3e1c0c49	0.15239061
250	0x3e532d82	0.20622829
251	0x3d3b76cd	0.045767594
252	0xbe573c05	-0.2101899
253	0x3d07b89c	0.03313504
254	0xbd65a01b	-0.05606089
255	0xbe51d14e	-0.2049

sequential_2/conv2d_7/Conv2D f4 [32, 3, 3, 32]
0	0x3d907916	0.07054345
1	0x3d104950	0.035226166
2	0x3e773e7f	0.24144934
3	0x3e081cac	0.13292187
4	0x3d1afed9	0.037840698
5	0xbd888eb6	-0.06667845
6	0x3d072c62	0.03300131
7	0x3db24485	0.08704475
8	0x3d2de613	0.042455744
9	0x3b0a40da	0.0021095783
10	0xbdad798a	-0.08470447
11	0xbd72bd47	-0.05926254
12	0x3d12ea71	0.035868112
13	0x3b8ec78d	0.0043572844
14	0xbd7b87cd	-0.061408807
15	0x3d0a192e	0.03371542
16	0xbc9a3c5f	-0.018827615
17	0xbde4618d	-0.11151419
18	0x3db643c1	0.08899642
19	0x3e1c730f	0.15278266
20	0x3da325ba	0.0796618
21	0xbcfb6a3f	-0.03069031
22	0xbdf6f219	-0.12057895
23	0x3dbce949	0.09224183
24	0xbc9dbd63	-0.019255346
25	0x3d6cc93f	0.05780911
26	0xbbc8689c	-0.006115986
27	0x3dcb92c0	0.099401
28	0xbd32fd33	-0.0436985
29	0xbc5d86a5	-0.013520871
30	0x3ca86d3e	0.020559903
31	0xbc5b9d1b	-0.013404156
32	0x3e36ec54	0.1786359
33	0x3e2d5fe9	0.16931118
34	0x3e05be8c	0.13060969
35	0xbcfadabb	-0.030621877
36	0x3b4ac790	0.0030941702
37	0x3caab239	0.020836936
38	0xbc8d2dac	-0.017233692
39	0x3e130d0b	0.14360444
40	0x3c3a6d3e	0.011378584
41	0xbc83edc6	-0.01610459
42	0x3e14f747	0.14547454
43	0xbe06d713	-0.13167982
44	0xbd929f25	-0.07159261
45	0x3e06e730	0.13174129
46	0x3e4f5bdf	0.2024989
47	0x3e5f52f9	0.21808995
48	0x3cc10a82	0.02356458
49	0xbb9b319b	-0.004736138
50	0x3e34e676	0.17666039
51	0x3e36a68f	0.17836975
52	0xbc1c5378	-0.009541385
53	0xbd9ce60e	-0.07661067
54	0xbbc955f3	-0.006144279
55	0x3ce068d6	0.02739374
56	0x3d8682b4	0.065678984
57	0x3e485898	0.19565046
58	0x3d182d16	0.037152372
59	0x3d40cb54	0.04706891
60	0xbda0c0b1	-0.07849253
61	0x3b973081	0.0046139364
62	0x3dfbda89	0.12297542
63	0xbca697aa	-0.020335991
64	0x3cc9a9a8	0.024617031
65	0x3c46a5d2	0.012124496
66	0x3e0cc9e1	0.13748886
67	0x3d0969df	0.033548232
68	0x3d99b088	0.07504374
69	0x3d8d7480	0.06906986
70	0xbd362a87	-0.04447415
71	0x3d08c116	0.033387266
72	0x3d8505bd	0.06495235
73	0xbd8c930f	-0.06863987
74	0xbdbbfb56	-0.09178798
75	0x3bfecebe	0.0077761104
76	0x3db90c44	0.090355426
77	0x3e032c70	0.1280992
78	0x3e158ce6	0.1460453
79	0x3d919e47	0.07110267
80	0x3d27cf94	0.040969446
81	0xbd93b31a	-0.07211895
82	0xbdab6dc1	-0.08370543
83	0x3dbfa81a	0.09358235
84	0xbce4c2b4	-0.027924873
85	0x3e065663	0.13118891
86	0x3de02df2	0.109462634
87	0x3e10f1f0	0.14154792
88	0x3d2cd904	0.04219915
89	0x3e2b09cd	0.16702957
90	0x3da7aac1	0.081868656
91	0xbd72b4dd	-0.059254516
92	0x3d16e84e	0.036842637
93	0x3d11db6e	0.035609655
94	0xbd3b3d41	-0.045712713
95	0x3c841dd9	0.016127514
96	0x3e3d7678	0.18502223
97	0x3e138827	0.14407407
98	0x3e4db7d2	0.20089653
99	0x3dcfafb4	0.101409346
100	0x3b2851a7	0.0025683434
101	0xbc54f93c	-0.012998875
102	0x3e186fc5	0.14886387
103	0xbbfc950a	-0.0077081965
104	0x3e1c6f29	0.15276779
105	0xbda25559	-0.07926435
106	0x3dcb8acb	0.09938582
107	0x3c22f355	0.00994571
108	0xbd0fc8c2	-0.035103567
109	0x3d7be489	0.061497245
110	0x3c366cc8	0.011134334
111	0x3c842a01	0.01613331
112	0x3e032c7a	0.12809935
113	0xbd4e9391	-0.0504337
114	0xbd34dc2d	-0.04415529
115	0x3d8efdea	0.06982024
116	0x3d913cf0	0.07091701
117	0xbdaa6042	-0.08319141
118	0xbde2e9ce	-0.11079751
119	0xbcd8015d	-0.026367838
120	0xbd0a5abe	-0.033777945
121	0x3dfc07df	0.12306189
122	0x3dc65ff8	0.09686273
123	0xbd1deab7	-0.03855392
124	0x3d826acd	0.06368027
125	0xbd79c3d9	-0.06097779
126	0x3d09784a	0.033561982
127	0xbd8cbd93	-0.06872096
128	0x3d8ced57	0.068812065
129	0x3cc5f93f	0.024166701
130	0x3dff8eb6	0.12478392
131	0x3ce90ae0	0.028447568
132	0x3d6e1ff7	0.058135953
133	0x3deb8586	0.11500077
134	0xbe3e0d6f	-0.18559812
135	0x3d6c4958	0.057687134
136	0x3e077657	0.13228737
137	0xbdafd3e4	-0.08585337
138	0x3e4be97d	0.19913287
139	0x3d9361be	0.07196377
140	0x3dc12a11	0.09431852
141	0x3cdace75	0.026709775
142	0x3cb2baf9	0.021817671
143	0x3ca88c42	0.020574693
144	0x3d3ef73c	0.0466225
145	0x3c8af739	0.016963588
146	0x3c8a815e	0.01690739
147	0x3e0af427	0.13569699
148	0xbb2d2ba0	-0.0026423708
149	0xbb5b8a36	-0.0033499128
150	0x3d508101	0.050904278
151	0x3dc9a3e4	0.09845713
152	0xbc25292e	-0.010080619
153	0x3e763d60	0.2404685
154	0x3dacb82a	0.08433564
155	0xbbb510dc	-0.0055256914
156	0xbdfcbe97	-0.1234104
157	0x3d6f5d61	0.058438662
158	0x3d96dc02	0.07366182
159	0xbe036301	-0.12830736
160	0x3e0a2764	0.13491589
161	0x3cfb2bfa	0.030660618
162	0xbd977b2e	-0.073965415
163	0xbba0c875	-0.004906709
164	0x3d073898	0.033012956
165	0x3da58eb5	0.0808386
166	0x3daa4e62	0.083157316
167	0x3d44838e	0.047977023
168	0x3b8ab2a8	0.0042327233
169	0x3c0e3d08	0.008681543
170	0xbe1c423c	-0.15259641
171	0x3daf18ad	0.085496284
172	0x3cdda165	0.027054498
173	0xbc214047	-0.009841985
174	0xbd00d06b	-0.031448763
175	0xb99b915a	-0.000296722
176	0x3e185645	0.14876659
177	0xbc9a7b69	-0.018857675
178	0x3c8bccd3	0.017065441
179	0x3d012317	0.031527605
180	0xbc8fd39c	-0.017556958
181	0x3dc5b421	0.096534975
182	0x3c0807bb	0.008302624
183	0xbbf9a748	-0.0076188184
184	0xbcd3c4e0	-0.025850713
185	0x3d458a35	0.048227508
186	0xbca24d79	-0.019812332
187	0x3ce2aee2	0.027671281
188	0x3dfcf219	0.12350864
189	0xbd8f0c20	-0.069847345
190	0xbd540ec6	-0.0517719
191	0x3c6af7f0	0.0143413395
192	0x3e1d536a	0.15363851
193	0xbd1a2ce5	-0.03764047
194	0x3d8edbe5	0.06975535
195	0xbb85915b	-0.0040761656
196	0x3d02b929	0.031914864
197	0x3cf353c8	0.029703036
198	0x3da33740	0.079695225
199	0x3dc7aca1	0.09749723
200	0x3e67b6b3	0.22628288
201	0x3d632320	0.05545342
202	0xbc1ca50d	-0.009560836
203	0x3d197fad	0.037475277
204	0x3d9c44ab	0.07630285
205	0xbcd3191f	-0.025768815
206	0x3d5518a5	0.052025456
207	0x3d0d0933	0.0344326
208	0x3b016da2	0.0019749184
209	0xbdfedc84	-0.12444404
210	0xbd863472	-0.06552972
211	0x3e1e5142	0.15460685
212	0x3d455ad0	0.04818231
213	0xbb865c2b	-0.0041003427
214	0xba23ddbf	-0.0006250999
215	0xbd5bdfd4	-0.053680256
216	0x3c599111	0.013279215
217	0xbc9fbe9f	-0.019500075
218	0x3d9557a8	0.0729211
219	0x3d868666	0.06568603
220	0x3d3fd924	0.04683794
221	0x3c52be0e	0.012862695
222	0x3de85ab1	0.11345423
223	0x3a714bf6	0.00092047395
224	0x3d9fe9c9	0.07808263
225	0x3e24fe80	0.16112709
226	0x3e1e33b7	0.15449415
227	0xbcc52caf	-0.024069158
228	0x3d8f6564	0.070017606
229	0xbdbbef0f	-0.09176456
230	0xbda042aa	-0.07825215
231	0xbd655dda	-0.055997707
232	0x3dec0d9f	0.115260355
233	0xbd81c856	-0.06337039
234	0x3e01c69e	0.12673423
235	0xbbd23866	-0.0064154146
236	0x3ce8f633	0.02843771
237	0xbd42e597	-0.047582235
238	0xbd8306d2	-0.06397785
239	0xbc9aa1a6	-0.018875908
240	0xbd6b078f	-0.057380255
241	0x3d64e4b4	0.05588217
242	0x3dad4850	0.08461058
243	0x3ce10719	0.027469205
244	0xbc5faf78	-0.013652675
245	0xbdd144cd	-0.10218201
246	0xbd8283f1	-0.06372822
247	0x3d879801	0.06620789
248	0xbd4d9740	-0.05019307
249	0x3e3d8db3	0.18511085
250	0x3c9a9eb6	0.018874507
251	0x3bdf3af8	0.0068124495
252	0x3d66a818	0.05631265
253	0xbc1d36ce	-0.009595586
254	0x3ddddf67	0.10833626
255	0xbc7ae8c3	-0.015314284

sequential_2/conv2d_8/Conv2D f4 [32, 3, 3, 32]
0	0x3d9d9d41	0.076960094
1	0xbd47e3d2	-0.04880125
2	0xbbb87785	-0.005629482
3	0xbd9a99ce	-0.07548867
4	0xbbeffef7	-0.0073240953
5	0x3d27fdee	0.04101365
6	0x3d43b66c	0.047781393
7	0xbd8097bf	-0.06278943
8	0xbd77f434	-0.060535625
9	0xbd6e8ae7	-0.058237936
10	0xbd847b04	-0.06468776
11	0xbdb3f4d2	-0.0878693
12	0x3d4a190e	0.0493403
13	0x3d992158	0.07477063
14	0xbcff9483	-0.031198746
15	0xbd47d9b7	-0.048791613
16	0x3d119103	0.035538685
17	0x3dc8cdd6	0.09804885
18	0x3da1618a	0.07879932
19	0xbdd05d61	-0.101740606
20	0xbd85cf3f	-0.0653367
21	0x3dbda73d	0.09260414
22	0x3d98bb19	0.07457561
23	0x3d46ead1	0.048563782
24	0x3c68c4d0	0.01420708
25	0xbd87e5af	-0.066356055
26	0xbd920a94	-0.07130924
27	0x3c228b05	0.00992084
28	0x3dde05d0	0.108409524
29	0x3dbd91ad	0.09256301
30	0xbd31835b	-0.04333816
31	0x3d37d6d2	0.044882603
32	0xbc9afae8	-0.01891847
33	0xbdb0fff0	-0.08642566
34	0xbc081b2e	-0.008307261
35	0xbd379bae	-0.044826202
36	0xbc6fe487	-0.0146418875
37	0x3caf4468	0.021394923
38	0x3d851d1c	0.06499693
39	0xbd9daab4	-0.07698575
40	0x3d6faa2e	0.058511905
41	0xbdc6d14c	-0.09707889
42	0x3d30cee8	0.04316607
43	0xbd1dc331	-0.038516227
44	0x3e0e0201	0.13867952
45	0xbcd4c693	-0.025973594
46	0xbd405d1e	-0.046963803
47	0xbb005f74	-0.0019588144
48	0xbcdd170a	-0.026988525
49	0x3d6ec17c	0.05828999
50	0x3c348890	0.011018887
51	0xbd3ee745	-0.046607275
52	0x3dd03334	0.10166016
53	0xbca9fd03	-0.020750528
54	0xbdc9041d	-0.09815238
55	0xbd215b5b	-0.039393764
56	0x3c8fbcdf	0.017546115
57	0xbda96b66	-0.08272438
58	0x3df90e79	0.121609636
59	0xbda1855f	-0.07886767
60	0x3d0839b3	0.03325815
61	0xbd81c87d	-0.06337068
62	0xbd66ad03	-0.05631734
63	0xbb8271e1	-0.0039808606
64	0x3d162b20	0.03666222
65	0xbd79ba10	-0.06096846
66	0xbd149a33	-0.03627987
67	0xbd33efb8	-0.043929785
68	0x3dfcb77f	0.123396866
69	0x3d9e5198	0.077304065
70	0xbd8e4bc1	-0.06948043
71	0x3ded2a1c	0.11580297
72	0x3c6103ff	0.013733863
73	0xbd8ff001	-0.07028199
74	0xbceb0496	-0.02868871
75	0xbc39f13e	-0.0113490205
76	0x3e2659dc	0.16245216
77	0x3d56c6de	0.05243575
78	0x3e0e164f	0.13875698
79	0xbdb104e4	-0.08643511
80	0x3d2e3662	0.042532332
81	0xbd790526	-0.060795926
82	0xbd60203d	-0.054718245
83	0x3dd340e9	0.10315115
84	0x3e1bf408	0.1522981
85	0x3dd00b2e	0.10158382
86	0xbd5d105e	-0.053970687
87	0xbda8c840	-0.0824132
88	0x3e17365e	0.14766833
89	0xbda0c0a5	-0.07849244
90	0xbbc3f603	-0.0059802546
91	0xbb9a8181	-0.004715145
92	0xbd956969	-0.07295496
93	0xbd73f6f6	-0.059561692
94	0xbcd51156	-0.026009243
95	0xbc8232ec	-0.015893422
96	0x3d4e554d	0.050374318
97	0x3d37c52f	0.044865783
98	0x3d47762f	0.048696693
99	0x3dda37b5	0.106551565
100	0xbcd1c563	-0.025606817
101	0x3d1f4a3a	0.038889147
102	0x3dc91bdc	0.09819767
103	0xbd0e9cf5	-0.034817655
104	0x3d2fc706	0.042914413
105	0x3c90c49c	0.017671876
106	0xbd0d157b	-0.034444313
107	0x3d8ed913	0.06974997
108	0x3e050d61	0.12993385
109	0x3d9e2e19	0.07723636
110	0xbcf4deb2	-0.029891346
111	0xbce3e433	-0.027818775
112	0xbdc2eff7	-0.09518426
113	0x3db013dc	0.08597538
114	0x3cfaf5c8	0.030634776
115	0xbdb38e75	-0.08767406
116	0x3ddcbe15	0.10778443
117	0x3b0313b5	0.002000076
118	0xbdb146de	-0.08656095
119	0x3d000fe1	0.031265143
120	0xbaaf6058	-0.0013380153
121	0x3a445e13	0.0007490825
122	0x3dcf1258	0.10110921
123	0xbd7071ca	-0.058702268
124	0x3de2a4fa	0.11066623
125	0x3d95ad6c	0.07308468
126	0xbd7b4f42	-0.061354883
127	0xbd9846c4	-0.074353725
128	0xbdcc1fc5	-0.09966997
129	0xbd5fd879	-0.054649804
130	0xbdfb34af	-0.12265908
131	0xbd911c9e	-0.070855364
132	0x3d963b0e	0.073354825
133	0x3d131e3c	0.035917506
134	0xbd1e34ea	-0.03862468
135	0x3d9e272a	0.07722314
136	0xbb678e39	-0.0035332574
137	0xba0b4161	-0.00053121714
138	0xbe035eaa	-0.1282908
139	0x3d55943a	0.052143313
140	0x3d04069e	0.032232873
141	0xbca95b82	-0.020673517
142	0xbd8b6ed7	-0.068082504
143	0xbd5705b7	-0.052495684
144	0x3d82a1bb	0.06378504
145	0xbc2a6f08	-0.0104024485
146	0x3d9dbde4	0.077022344
147	0xbc31d2e1	-0.0108535
148	0xbd3f720b	-0.04673962
149	0x3db9e209	0.09076316
150	0x3d9e0889	0.07716472
151	0x3c894f33	0.016761398
152	0x3d810e42	0.063015476
153	0xbd305b95	-0.04305609
154	0xbca09a14	-0.01960472
155	0x3d674742	0.05646444
156	0x3d9b87e8	0.075942814
157	0xbca081aa	-0.019593079
158	0xbd623dda	-0.055234767
159	0xbdcad7b2	-0.09904422
160	0xbcb370da	-0.021904398
161	0x3bf9db15	0.0076249936
162	0x3dd46d3f	0.103723995
163	0xbb394123	-0.0028267584
164	0x3de47afe	0.111562714
165	0x3df490ae	0.11941658
166	0xbd1f3d88	-0.03887704
167	0x3dfe15ed	0.12406526
168	0xbc886263	-0.016648477
169	0x3d856efa	0.06515308
170	0x3d23510a	0.039872207
171	0xbd1bd524	-0.038045064
172	0x3dcd17c3	0.10014298
173	0x3e044519	0.12916984
174	0xbd6036ad	-0.054739643
175	0x3b932a6f	0.0044911425
176	0xbdee19e6	-0.116260335
177	0x3c650e70	0.013980493
178	0xbd1f8120	-0.038941503
179	0x3df8dedc	0.12151882
180	0x3db74a6d	0.089497425
181	0x3dd3aa8f	0.10335266
182	0xbcf261e8	-0.029587701
183	0x3d909dad	0.07061324
184	0x3dd6bb6f	0.10484969
185	0x3c1fb46d	0.009747607
186	0x3da73277	0.08163922
187	0x3cd886b8	0.026431426
188	0xbd828aea	-0.06374152
189	0x3cf95baa	0.030439217
190	0x3ddbc466	0.107308194
191	0x3d020bcf	0.031749543
192	0xb9b1520e	-0.00033821206
193	0x3df0b7a7	0.11753779
194	0x3ca1c34c	0.019746445
195	0xbce97b51	-0.028501185
196	0x3d012f0f	0.03153902
197	0xbda74f6a	-0.08169444
198	0xbd15b0de	-0.036545627
199	0x3d744fde	0.05964648
200	0xbc6c6072	-0.014427291
201	0x3d9602ec	0.07324776
202	0xbdb7d985	-0.089770354
203	0x3d1aac48	0.037761956
204	0xbbfd640c	-0.007732874
205	0x3d8ad406	0.067787215
206	0x3db9c38f	0.09070503
207	0x3db1d57f	0.08683299
208	0xbdf7968e	-0.12089263
209	0x3bf79cb0	0.0075565204
210	0xbd87374c	-0.06602344
211	0xbdbd19c6	-0.092334315
212	0xbd20fb87	-0.039302375
213	0xbd08468a	-0.033270396
214	0xbd319ed5	-0.043364365
215	0xbd86d262	-0.06583096
216	0xbd5e5e5c	-0.054289207
217	0x3afd0ce7	0.0019306213
218	0x3b208e6e	0.0024498957
219	0x3dccbb6c	0.099966854
220	0x3b77b54d	0.0037797273
221	0x3d873eb5	0.06603757
222	0xbd81373b	-0.063093625
223	0x3d4d1e79	0.05007789
224	0xbda3c443	-0.07996418
225	0x3dff175b	0.124556266
226	0xbd6291f0	-0.055314958
227	0x3d8f6631	0.07001913
228	0xbd9cbc58	-0.07653111
229	0x3ce82017	0.028335614
230	0xbd356e3b	-0.044294577
231	0xbb06cd63	-0.0020569197
232	0x3cc95a06	0.02457906
233	0xbd54fd07	-0.05199912
234	0xbe02d60d	-0.12776966
235	0xbdbd54c7	-0.092446856
236	0x3d5f519c	0.05452119
237	0x3de43471	0.11142815
238	0x3d956efa	0.07296558
239	0x3c98d75e	0.018657383
240	0xbc51f46a	-0.0128146205
241	0x3da48480	0.08033085
242	0xbd2b5ade	-0.041834705
243	0x3d51bdd9	0.051206443
244	0x3bb263b3	0.005444014
245	0x3de7bbe3	0.113151334
246	0xbcb15d72	-0.021651004
247	0x3d063bc7	0.032771852
248	0x3caed474	0.02134154
249	0x3e0d9f21	0.13830234
250	0x3b862ed6	0.0040949387
251	0x3ded06e1	0.11573578
252	0xbd21810b	-0.039429706
253	0xbd0577a4	-0.0325848
254	0x3d9f45b7	0.07776969
255	0xbdc72042	-0.097229496

sequential_2/conv2d_6/Relu;sequential_2/conv2d_6/BiasAdd;sequential_2/conv2d_8/Conv2D;sequential_2/conv2d_6/Conv2D;sequential_2/conv2d_6/BiasAdd/ReadVariableOp f4 [32, 3, 3, 3]
0	0xb9a59e81	-0.00031589347
1	0x39966b42	0.00028690143
2	0xb8ab7e9f	-8.1775004e-05
3	0x38a8b973	8.045407e-05
4	0x39899ea2	0.00026248867
5	0xba1b1a19	-0.00059166696
6	0xb707f225	-8.103006e-06
7	0xba057a99	-0.0005091816
8	0xb9f42d88	-0.0004657323
9	0x38c4db28	9.386829e-05
10	0xb93fc340	-0.00018287916
11	0x39e2df4f	0.00043272457
12	0xb9405953	-0.00018343823
13	0xb96df54f	-0.00022693466
14	0xba08e303	-0.00052218157
15	0x39d8e6b0	0.00041370606
16	0xb933d7d4	-0.00017151173
17	0x392d7346	0.00016541508
18	0x3965a63d	0.0002190107
19	0xb8c6ca73	-9.479085e-05
20	0xb9da6066	-0.00041652023
21	0xb86ae37b	-5.6001805e-05
22	0x39ca379c	0.00038569875
23	0x3a1d573e	0.0006002075
24	0x38e7ec8f	0.00011059001
25	0x3a23d348	0.000624944
26	0xb8f3d906	-0.00011627567
27	0xb846523e	-4.7283473e-05
28	0xb9e9be61	-0.00044583066
29	0xba38a949	-0.00070442684
30	0xb9761a5b	-0.00023470206
31	0x3a09b3bf	0.00052529195
32	0xb8449826	-4.687174e-05
33	0xb980195b	-0.00024432954
34	0xb5c864c2	-1.4930486e-06
35	0x39c92ee6	0.0003837265
36	0x3a1c14ca	0.00059540255
37	0xb8981c88	-7.253239e-05
38	0xba19478c	-0.0005847148
39	0x386af70c	5.6020028e-05
40	0x3a0db71d	0.0005406009
41	0x395015ee	0.00019844595
42	0xb7d9fd71	-2.5986434e-05
43	0x39aaf62d	0.00032608342
44	0xba190691	-0.0005837465
45	0x39c24f3e	0.00037061604
46	0xb959fdab	-0.00020789231
47	0xba50e8ad	-0.00079692417
48	0xb9949dd3	-0.00028346348
49	0xb9f08a71	-0.00045879514
50	0x39c9148b	0.00038353013
51	0x3a2ebb93	0.0006665524
52	0x39a8a3c0	0.0003216546
53	0x39d7365a	0.0004104849
54	0xb933aa03	-0.00017134105
55	0xb9817da4	-0.00024698407
56	0xb84dc2d9	-4.9057275e-05
57	0xb9f35934	-0.00046415033
58	0x3a02e776	0.0004993597
59	0xba161d6b	-0.00057264295
60	0x3a12303f	0.0005576647
61	0xb8d6d4b6	-0.00010243936
62	0x399aa58a	0.00029496505
63	0xb8e17dec	-0.00010752291
64	0xb8d644fb	-0.00010217164
65	0xba10d2f4	-0.00055245985
66	0xb949de08	-0.00019251567
67	0xb9a66337	-0.00031735908
68	0xb8a56350	-7.8863115e-05
69	0xb9f84971	-0.00047356964
70	0x38e2b726	0.00010810634
71	0x39a5f47a	0.00031653402
72	0x387cb1cd	6.024707e-05
73	0x3828ad85	4.0215924e-05
74	0xba06fc7b	-0.0005149317
75	0x3a0f36ca	0.00054631813
76	0x38aa2e92	8.114906e-05
77	0x3a1ce524	0.00059850723
78	0x3970a3dc	0.00022949226
79	0x39b306c3	0.00034146578
80	0xb96b300d	-0.00022429247
81	0xb88981fe	-6.556882e-05
82	0x39d89f67	0.00041317494
83	0xba1b9d88	-0.0005936255
84	0xb9e1730f	-0.0004300107
85	0xb9891666	-0.00026147364
86	0xb9b7eb11	-0.00035079618
87	0x3a088b36	0.00052087323
88	0xb7c021cd	-2.2903923e-05
89	0xb97ba30b	-0.00023997964
90	0x380818d8	3.2448064e-05
91	0x39a84129	0.00032092005
92	0xb967a5f0	-0.00022091693
93	0x39a88570	0.00032142876
94	0x38993b28	7.306627e-05
95	0x396079bd	0.00021407656
96	0x39532d3d	0.0002013938
97	0xb9829c6b	-0.00024912073
98	0x38803554	6.113449e-05
99	0x3a2cd17d	0.00065924955
100	0x39cc1e79	0.00038932616
101	0x391974f6	0.00014634788
102	0x3a02e0cd	0.00049926044
103	0x39654671	0.00021865383
104	0xba0eb4f0	-0.0005443832
105	0xb9b9c494	-0.00035432412
106	0x39607215	0.00021404804
107	0xba422c6a	-0.0007407131
108	0x3993d18b	0.00028194147
109	0x3811dbbe	3.4775345e-05
110	0xb7d93a57	-2.5895582e-05
111	0x39cb598d	0.00038785898
112	0xb981f31a	-0.00024785922
113	0x387134e2	5.750813e-05
114	0x3a0cf8c9	0.0005377648
115	0xb9b70c81	-0.00034913796
116	0xb9bd9812	-0.0003616219
117	0xb9bd5598	-0.00036112661
118	0x3a030ee1	0.00049994705
119	0x39cb7b5f	0.00038811096
120	0xb9a1a7ae	-0.00030833244
121	0x39822d97	0.000248295
122	0x3676fdea	3.6804654e-06
123	0x39aa21bb	0.00032450058
124	0xb985a769	-0.00025492467
125	0xb996b914	-0.00028748123
126	0x39f15d81	0.00046036768
127	0xb9b21824	-0.00033968792
128	0x39242a83	0.00015656096
129	0xb8ab5445	-8.169612e-05
130	0x39f1e22c	0.00046135613
131	0xba03df4e	-0.00050305284
132	0x3962ad4a	0.00021617595
133	0xb81aedf5	-3.6938076e-05
134	0xba0b8026	-0.0005321525
135	0x39fc6eed	0.00048147832
136	0xb9f540ab	-0.00046778223
137	0x39520065	0.00020027308
138	0x3a0f435b	0.0005465054
139	0xb9d0c44e	-0.0003981911
140	0xb99918e8	-0.0002920099
141	0x39c9862e	0.0003843768
142	0x39d68d91	0.00040922736
143	0x392d0a11	0.00016502316
144	0x3a05fadb	0.0005110928
145	0x39eb5775	0.00044887853
146	0x39110ba0	0.00013832608
147	0xb940b580	-0.00018378161
148	0xb940f11e	-0.0001840037
149	0xb815d0af	-3.571872e-05
150	0x398c2030	0.00026726862
151	0x392196f1	0.00015410387
152	0x3a03b4f9	0.00050242204
153	0xb93d1824	-0.00018033438
154	0xb9b36802	-0.00034219032
155	0x38f19278	0.000115190574
156	0x3a2d735a	0.0006616615
157	0xb997f629	-0.00028984368
158	0x39d4fb02	0.00040622806
159	0x3a3598d9	0.0006927378
160	0x3a1d2e0e	0.00059959374
161	0xb5db70c0	-1.6349586e-06
162	0xb8a6c2e4	-7.951798e-05
163	0x3a11c2ad	0.000556032
164	0xba0dc305	-0.00054077833
165	0xb9a60e0f	-0.00031672462
166	0x3a03c457	0.00050265103
167	0xb8b00a59	-8.3942614e-05
168	0xb9bb3747	-0.00035708604
169	0xb9ba9f8c	-0.00035595556
170	0xb993530e	-0.00028099905
171	0xb96003a1	-0.00021363657
172	0x3912cc8a	0.00013999842
173	0x3995f81d	0.00028604353
174	0xb95a6ca0	-0.00020830566
175	0xb9e57bb6	-0.00043770456
176	0xb8c45ef8	-9.3636976e-05
177	0x37b00f3f	2.0987934e-05
178	0xb9e80798	-0.00044256146
179	0xb8cae9ba	-9.6756456e-05
180	0x3988dfdf	0.00026106738
181	0x3a0aa37a	0.0005288642
182	0x3a20a691	0.0006128336
183	0xb9d96359	-0.00041463485
184	0xb8f0d65b	-0.000114840186
185	0xb8a0780c	-7.651755e-05
186	0x39deb96f	0.00042481298
187	0x3909e678	0.00013151194
188	0x399dd5f9	0.00030104796
189	0x3a113266	0.0005538821
190	0xb9da430e	-0.0004163016
191	0xb9fc5c0c	-0.00048133766
192	0x3a37b60f	0.0007008025
193	0xb897ee91	-7.2446775e-05
194	0xb90228df	-0.00012412992
195	0xb9ee47f9	-0.0004544852
196	0xb7aec441	-2.0833804e-05
197	0xb98215d4	-0.00024811795
198	0xb8fd97fd	-0.0001209229
199	0xb99d72ce	-0.0003003091
200	0xb9fa38f0	-0.00047726138
201	0x3a136f02	0.00056241464
202	0x39f4b0bf	0.00046670993
203	0xb943223b	-0.00018609401
204	0xb969c376	-0.00022293426
205	0x393b6c2e	0.0001787401
206	0xba0c46bd	-0.0005351117
207	0x38956fac	7.125674e-05
208	0x3a0422ca	0.00050405844
209	0xba0f7fbd	-0.00054740516
210	0x39fce3d4	0.0004823493
211	0x39a70031	0.00031852865
212	0x3a0f74ba	0.00054724107
213	0x39a812e2	0.00032057526
214	0xb92062a7	-0.0001529554
215	0xb965cb8f	-0.00021914973
216	0xb9525dde	-0.00020062129
217	0xb9306634	-0.00016822742
218	0xb91dcf9e	-0.0001505003
219	0x3a36b7c4	0.0006970132
220	0xb82ca680	-4.116306e-05
221	0xba0a247b	-0.0005269718
222	0x399a61bc	0.00029445987
223	0x3a050880	0.0005074814
224	0x3953381b	0.00020143429
225	0x3a0498d3	0.0005058173
226	0xb980156c	-0.00024430023
227	0xb9ee1aa5	-0.0004541475
228	0xb9a502ef	-0.00031473438
229	0xb99a7f42	-0.00029467983
230	0xb95d0cda	-0.0002108099
231	0x39302402	0.00016798082
232	0xb9873682	-0.00025789818
233	0x39ad3b59	0.0003304135
234	0x3a21e80f	0.0006176242
235	0xb8d20f92	-0.000100164805
236	0xb90585bc	-0.00012733688
237	0x395e8b32	0.00021223424
238	0xb9cb527c	-0.00038780633
239	0xb99bcf66	-0.00029718428
240	0xb763144e	-1.3534982e-05
241	0xb90244b0	-0.00012423354
242	0x37bc8561	2.2473456e-05
243	0xb878a8aa	-5.928489e-05
244	0x39f73d12	0.00047157012
245	0x3a1aead1	0.0005909624
246	0xb9f5ef6a	-0.0004690842
247	0x387ae4c5	5.9817703e-05
248	0x39c02257	0.0003664668
249	0xb9331287	-0.00017077672
250	0xb99fd6ee	-0.00030486978
251	0x3964c58f	0.0002181737
252	0xb9d3f264	-0.0004042565
253	0x3a190126	0.0005836658
254	0x3a208760	0.0006123688
255	0x39464407	0.00018908094
