app/src/main/ml/sthupa_model.tflite (tflite, 152212 bytes, 10 tensors)

sequential/dense/BiasAdd/ReadVariableOp f4 [128]
0.01859903 -0.010605428 -0.013071674 -0.0060030073 0.019970557 -0.0045182104 0.014410144 -0.0071003796
0.012873247 -0.0060024764 -0.0026961751 0.017421674 -0.016726024 0.0073466306 -0.006004137 0.007928629
0.0137667395 -0.02057702 0.00606053 -0.009504787 -0.0049498524 0.0058971625 0.011400188 0.012412734
-0.002441881 -0.016517775 0.00013840021 -0.01003114 0.0 0.02764314 -0.0123148365 0.008700847
0.0008911956 -0.002005755 0.024066148 0.00871723 -0.00015044867 -0.007842343 0.007712841 0.028123626
0.00045749123 -4.8560258e-05 -0.0040288502 -0.0033513363 0.0047312835 0.007009241 0.008897923 -0.0005274179
-0.034370955 -0.0064621996 -0.0042071757 0.004216054 0.009156759 -0.021361308 -0.013547332 0.010527543
-0.005353851 -0.009037894 -0.009367781 -0.012512522 -0.013832037 0.0 0.004062769 0.017415507
0.0212931 0.008519362 -0.0062611187 0.004985614 0.002030492 0.005659712 0.01830431 0.019390952
0.018218977 -0.0027813516 -0.0074627413 -0.003403279 -0.0139988 0.018255843 0.010912505 -0.004823629
-0.0065039503 0.0 0.0034931418 0.01639534 -0.00154897 -0.0010686727 -0.009532795 0.0024831435
0.007872036 -0.0140985 0.0 0.0 -0.015938478 -0.00974476 0.015173906 0.02664981
0.0 0.014221296 -0.0018586306 -0.008831026 0.0 -0.0084871445 0.027180772 -0.009341462
-0.0070248 -0.006205192 -0.0053953785 -0.015619115 0.020652719 0.0 0.0023441187 -0.006064019
-0.015666116 0.013824397 0.0034411228 -0.0027850878 -0.011830559 -0.0213858 -0.003514291 0.028156014
-0.005248172 0.017314808 0.005165449 -0.007791704 0.018489482 0.00011570624 -0.0034657186 0.016912023
00000000: fe5c 983c 64c2 2dbc 932a 56bc e0b4 c4bb
00000010: 4b99 a33c 7f0d 94bb 8618 6c3c 4daa e8bb
00000020: 50ea 523c 6cb0 c4bb 50b2 30bb e6b7 8e3c
00000030: 0405 89bc 01bc f03b 5abe c4bb 15e7 013c
00000040: e48d 613c 2391 a8bc 6997 c63b f7b9 1bbc
00000050: 5f32 a2bb fc3c c13b dbc7 3a3c c85e 4b3c
00000060: f707 20bb 4950 87bc 861f 1139 a759 24bc
00000070: 0000 0000 de73 e23c 2bc4 49bc ff8d 0e3c
00000080: 209f 693a fc72 03bb 5f26 c53c b6d2 0e3c
00000090: c2c1 1db9 2c7d 00bc 00bc fc3b 8563 e63c
000000a0: 6fdb ef39 2ead 4bb8 7204 84bb 18a2 5bbb
000000b0: e208 9b3b c6ad e53b 98c8 113c 6b42 0aba
000000c0: 8fc8 0cbd dcc0 d3bb 59dc 89bb d326 8a3b
000000d0: 3b06 163c e9fd aebc a1f5 5dbc b77b 2c3c
000000e0: 5b6f afbb ad13 14bc 527b 19bc 5201 4dbc
000000f0: c59f 62bc 0000 0000 fa20 853b f7aa 8e3c
00000100: de6e ae3c cb94 0b3c 122a cdbb 5d5e a33b
00000110: 0112 053b 1b75 b93b ecf2 953c c6d9 9e3c
00000120: f73f 953c 5647 36bb 038a f4bb 8c09 5fbb
00000130: 395b 65bc 478d 953c 5dca 323c 880f 9ebb
00000140: 171f d5bb 0000 0000 32ed 643b 854f 863c
00000150: cf06 cbba b512 8cba 712f 1cbc 3cbc 223b
00000160: b6f9 003c 65fd 66bc 0000 0000 0000 0000
00000170: 6991 82bc 7ca8 1fbc fa9b 783c b450 da3c
00000180: 0000 0000 7000 693c 4b9d f3ba 02b0 10bc
00000190: 0000 0000 aa0d 0bbc 36aa de3c ee0c 19bc
000001a0: 4b30 e6bb ec54 cbbb b7cb b0bb 51e7 7fbc
000001b0: e42f a93c 0000 0000 c99f 193b aeb4 c6bb
000001c0: 3a56 80bc b97f 623c 7684 613b 0586 36bb
000001d0: f6d4 41bc 4631 afbc 0550 66bb 71a7 e63c
000001e0: dcf8 abbb c9d7 8d3c ed42 a93b 8d51 ffbb
000001f0: 4177 973c 51a7 f238 1c21 63bb 158b 8a3c

sequential/dense_1/BiasAdd/ReadVariableOp f4 [9]
0.006094485 0.006693072 0.019937335 -0.0008315466 -0.007817176 -0.013346733 -0.002760133 -0.022787204
0.0020416563
00000000: 3fb4 c73b 8f51 db3b 9f53 a33c 26fc 59ba
00000010: 9d13 00bc 41ac 5abc 59e3 34bb 3bac babc
00000020: 4fcd 053b

sequential/conv2d/BiasAdd/ReadVariableOp f4 [32]
0.04482103 0.03909013 0.033313658 0.032354474 0.04891671 0.06764446 0.021582756 0.02076921
0.075020574 0.043271378 0.0029493878 0.056693815 0.043537945 -0.067836404 0.063599005 -0.03926306
-0.0662874 -0.038697716 -0.04490479 -0.045510262 0.045270503 -0.033646256 -0.03984076 0.062286988
-0.046961196 -0.078688666 -0.014712352 -0.05212488 -0.08904928 0.04986529 -0.04131264 0.028497001
00000000: 4296 373d f91c 203d e773 083d 2086 043d
00000010: e35c 483d 2e89 8a3d 52ce b03c 3124 aa3c
00000020: 63a4 993d 543d 313d 844a 413b c637 683d
00000030: d854 323d d0ed 8abd 3240 823d 4dd2 20bd
00000040: b0c1 87bd 7f81 1ebd 16ee 37bd f868 3abd
00000050: 906d 393d a8d0 09bd 1130 23bd a420 7f3d
00000060: 625a 40bd 8627 a1bd 140c 71bc e680 55bd
00000070: 785f b6bd 8c3f 4c3d 7137 29bd 8b72 e93c

sequential/conv2d_2/BiasAdd/ReadVariableOp f4 [32]
-0.0030067728 -0.008988137 0.0034782535 -0.0059989104 -0.0069108945 -0.01143565 -0.011647798 -0.0066092033
0.003940196 0.00392195 -0.012955095 -0.0033182846 -0.006852534 0.011485096 0.014793395 -0.0041150604
-0.009212104 0.013768239 -0.0033715141 -0.00079372094 -0.005550003 0.015338854 -0.007529646 0.03404862
0.015536327 0.0017940088 -0.0064265435 -0.019368263 -0.0042529106 -0.004219202 -0.001295496 0.024221525
00000000: 470d 45bb fb42 13bc 69f3 633b 8292 c4bb
00000010: c974 e2bb 985c 3bbc 68d6 3ebc 0492 d8bb
00000020: c21c 813b b383 803b 9b41 54bc 9477 59bb
00000030: 398b e0bb fc2b 3c3c ff5f 723c a1d7 86bb
00000040: 5dee 16bc 2e94 613c 9ff4 5cbb b611 50ba
00000050: cddc b5bb d14f 7b3c 40bb f6bb 9176 0b3d
00000060: 148c 7e3c f224 eb3a c195 d2bb 31aa 9ebc
00000070: 005c 8bbb 3b41 8abb a2cd a9ba 386c c63c

sequential/conv2d_1/BiasAdd/ReadVariableOp f4 [32]
-0.011250663 -0.025001818 -0.0051572467 -0.009289353 -0.017681526 -0.006122848 -0.025556128 0.01663804
0.07674855 -0.0049275076 -0.007986543 0.008808765 0.037465274 -0.022532683 0.037395906 0.027977224
0.019219505 -0.034414113 -0.0065650926 0.033282302 -0.0078518335 0.02758441 -0.022236414 -0.016416823
0.025827756 -0.00586477 -0.02501309 -0.0065712347 -0.0052794595 0.023812445 0.011591384 0.035895612
00000000: b354 38bc 9dd0 ccbc 1ffe a8bb 5f32 18bc
00000010: d9d8 90bc 2ca2 c8bb 165b d1bc 804c 883c
00000020: 582e 9d3d ee76 a1bb fdd9 02bc a352 103c
00000030: 3075 193d 7696 b8bc 732c 193d 7e30 e53c
00000040: 3972 9d3c d0f5 0cbd fd1f d7bb 0653 083d
00000050: faa4 00bc b3f8 e13c 2429 b6bc 937c 86bc
00000060: bb94 d33c 422d c0bb 40e8 ccbc 8353 d7bb
00000070: 51ff acbb 5112 c33c cae9 3d3c 4707 133d

sequential/dense/MatMul f4 [128, 128]
0.15388387 0.024029542 0.029984016 0.03203565 0.06788519 0.11327961 0.08361169 -0.07545379
-0.07587519 0.12808996 0.09469262 0.027735 -0.004476428 0.1361196 -0.00620163 -0.05794494
0.052055776 -0.101942606 -0.10010494 0.13795693 0.019421592 -0.08675095 -0.04754378 0.037216842
0.021956652 0.15451139 0.0131293945 -0.06298836 0.10972048 -0.112072535 0.07658378 -0.0014182869
0.057484444 0.011905134 -0.0969282 0.12297423 -0.11221792 -0.13578628 0.054411113 -0.026250118
-0.018729165 0.017747367 -0.04764922 -0.112284094 -0.14659706 0.08423644 -0.053724375 -0.08120959
-0.07567267 0.14804456 0.007968336 0.056098063 -0.14962195 -0.11056409 0.0051195407 0.10343785
-0.064368114 0.04518236 0.07292293 -0.04734978 0.12711956 -0.1455331 0.1190215 0.13458674
-0.09228542 0.11543454 0.049905263 -0.14706352 -0.09804386 -0.06244211 -0.1589729 -0.12826873
-0.04278543 0.04172633 0.0754148 0.12975924 -0.023956463 -0.11117939 0.18208936 -0.09147042
0.03272225 0.11320576 0.0612424 -0.2009608 -0.07517484 0.06746145 0.026899608 -0.12535837
-0.18068293 -0.16041233 -0.034380663 -0.018268323 0.13692509 -0.12833747 0.13934824 0.12654822
-0.10415864 0.0024766922 -0.12787965 -0.09085903 0.1251258 0.029688558 -0.018748071 0.0131302
0.0774101 -0.14833593 0.050594687 0.13477752 0.0046910048 -0.08011411 -0.0019794172 0.022496456
0.09721248 0.18311022 -0.09448267 -0.15593524 -0.091428295 0.02642181 -0.011848196 0.038725685
0.042942073 -0.050157927 -0.032976966 0.13506919 0.04463549 -0.12802465 -0.11475099 0.08118007
-0.15220952 0.14291655 0.06167078 0.09752749 0.055751264 -0.15091203 -0.07350007 -0.037206657
-0.054787613 0.018282242 0.09705651 0.012396066 -0.038733244 -0.0521163 -0.15591983 0.12365514
-0.105658375 0.11277635 0.12702437 -0.034099303 0.12020883 -0.03670868 0.13048525 -0.11460682
-0.10139947 -0.10225677 0.08536036 -0.050584212 -0.06903531 -0.019421011 0.043398935 -0.12543526
0.11170486 0.019070283 0.1654254 -0.13368294 -0.10452872 -0.061803788 0.07592471 -0.13146883
0.17285278 -0.082864396 -0.13596587 -0.0991079 0.107732974 0.008229459 -0.057337273 0.013097428
-0.1493199 -0.028064612 0.07163888 0.052800693 -0.0165717 -0.072418585 -0.023075864 -0.12295709
0.0745867 0.048577756 -0.111738 0.157291 -0.04307996 0.13232729 0.014891636 -0.06385049
0.1216052 0.12406297 -0.14599293 -0.013467989 -0.028013159 -0.008228917 -0.011062497 0.15914598
-0.04036825 0.14898999 0.14047864 -0.06636851 0.123708546 -0.16524668 0.15007612 0.12333883
-0.038831796 0.15339093 -0.028535783 0.11007222 -0.14367916 -0.09535544 0.10021496 0.0698766
0.1320012 -0.16149227 0.13457727 -0.113448404 0.13763224 -0.13670492 0.06475737 -0.14901747
0.09126354 -0.05999074 -0.058368176 0.090610504 -0.018366056 0.024722798 0.06645664 -0.11048393
-0.06903288 -0.18804088 0.12479587 0.06013497 0.010635155 0.15424529 -0.11925497 0.17382975
0.05129536 0.039646287 0.06935558 0.14503197 0.0162189 0.09413494 0.15563467 0.09723006
-0.11825884 0.13172533 -0.088138275 -0.10930831 -0.0048346436 -0.024911752 -0.07481292 0.11247705
00000000: bc93 1d3e 9ad9 c43c 0aa1 f53c d037 033d
00000010: 6407 8b3d 24ff e73d 9b3c ab3d 8487 9abd
00000020: 7464 9bbd 042a 033e 34ee c13d 8334 e33c
00000030: 00af 92bb f062 0b3e 0b37 cbbb ac57 6dbd
00000040: 7038 553d 49c7 d0bd d203 cdbd 9544 0d3e
00000050: 081a 9f3c 7baa b1bd 44bd 42bd b070 183d
00000060: 70de b33c 3c38 1e3e ac1c 573c 0b00 81bd
00000070: 22b5 e03d 4986 e5bd f5d7 9c3d d0e5 b9ba
00000080: cf74 6b3d c00d 433c 4b82 c6bd ead9 fb3d
00000090: 82d2 e5bd 8f0b 0bbe 30de 5e3d 7d0a d7bc
000000a0: e86d 99bc ed62 913c d42b 43bd 34f5 e5bd
000000b0: 8a1d 16be 2884 ac3d 170e 5cbd 3751 a6bd
000000c0: 46fa 9abd fe98 173e a08d 023c 15c7 653d
000000d0: 7f36 19be 6d6f e2bd d2c1 a73b 39d7 d33d
000000e0: 6ed3 83bd 2311 393d 9e58 953d d8f1 41bd
000000f0: a12b 023e a106 15be 8bc1 f33d 1bd1 093e
00000100: 2300 bdbd f268 ec3d 7669 4c3d d297 16be
00000110: 38cb c8bd 4cc3 7fbd cbc9 22be e158 03be
00000120: c63f 2fbd 3ae9 2a3d 1373 9a3d 9bdf 043e
00000130: 5840 c4bc 05b2 e3bd a275 3a3e d854 bbbd
00000140: c407 063d 6cd8 e73d 50d9 7a3d abc8 4dbe
00000150: 44f5 99bd 3b29 8a3d 915c dc3c f25d 00be
00000160: f204 39be 2143 24be bdd2 0cbd 73a7 95bc
00000170: 1736 0c3e e66a 03be 4eb1 0e3e db95 013e
00000180: 2051 d5bd 0050 223b e2f2 02be 4d14 babd
00000190: fa20 003e 6b35 f33c 8e95 99bc 0d20 573c
000001a0: 3089 9e3d 60e5 17be 603c 4f3d 1e03 0a3e
000001b0: 00b7 993b de12 a4bd 1cb9 01bb 7d4a b83c
000001c0: 5617 c73d 3f81 3b3e 2180 c1bd 7dad 1fbe
000001d0: c23e bbbd 8d72 d83c f01e 42bc d39e 1e3d
000001e0: 07e4 2f3d 6672 4dbd db12 07bd 944f 0a3e
000001f0: b4d3 363d e518 03be 9102 ebbd bd41 a63d
00000200: d0dc 1bbe b758 123e 809a 7c3d 7ebc c73d
00000210: 705b 643d af88 1abe 3487 96bd 0266 18bd
00000220: fa68 60bd a4c4 953c 90c5 c63d df18 4b3c
00000230: c0a6 1ebd e777 55bd 73a9 1fbe e83e fd3d
00000240: 6b63 d8bd 49f7 e63d ad12 023e b6ab 0bbd
00000250: 0c30 f63d d75b 16bd ed9d 053e fbb6 eabd
00000260: 86aa cfbd ff6b d1bd 6ad1 ae3d 6431 4fbd
00000270: 6262 8dbd d018 9fbc 15c3 313d 1a72 00be
00000280: 85c5 e43d 4839 9c3c 4765 293e 2ee4 08be
00000290: 2713 d6bd f825 7dbd 6a7e 9b3d c49f 06be
000002a0: 5200 313e cfb4 a9bd a33a 0bbe 15f9 cabd
000002b0: 1ba3 dc3d dad4 063c 7dda 6abd 9896 563c
000002c0: 51e7 18be c2e7 e5bc 68b7 923d 8a45 583d
000002d0: 60c1 87bc 3250 94bd 9809 bdbc edd0 fbbd
000002e0: e9c0 983d 78f9 463d e4d6 e4bd e410 213e
000002f0: 9d74 30bd ce80 073e 0cfc 733c 0cc4 82bd
00000300: 260c f93d ba14 fe3d 2c7f 15be d7a8 5cbc
00000310: da7b e5bc 94d2 06bc 7a3f 35bc 2af7 223e
00000320: 2e59 25bd d590 183e a2d9 0f3e 37ec 87bd
00000330: e85a fd3d 6d36 29be 8ead 193e 1299 fc3d
00000340: 170e 1fbd 8312 1d3e e0c3 e9bc 8b6d e13d
00000350: a120 13be b749 c3bd 803d cd3d 761b 8f3d
00000360: 532b 073e 3b5e 25be a0ce 093e a357 e8bd
00000370: 77ef 0c3e 60fc 0bbe 839f 843d 0998 18be
00000380: 61e8 ba3d dab8 75bd 7813 6fbd 0092 b93d
00000390: 6974 96bc 7787 ca3c 6b1a 883d 6645 e2bd
000003a0: 1c61 8dbd ca8d 40be fa94 ff3d 1650 763d
000003b0: 133f 2e3c 7af2 1d3e f33b f4bd 6d00 323e
000003c0: 151b 523d 2564 223d 4c0a 8e3d 4383 143e
000003d0: 80dd 843c d2c9 c03d b25e 1f3e 8e20 c73d
000003e0: b131 f2bd 01e3 063e d781 b4bd 09dd dfbd
000003f0: ee6b 9ebb bb13 ccbc 8437 99bd 5e5a e63d

sequential/dense_1/MatMul f4 [9, 128]
0.07762728 -0.16947278 -0.222438 0.1801637 -0.14942378 -0.03762921 0.24827856 -0.13821161
-0.07495407 0.21264733 -0.07680401 -0.16412188 0.081999734 -0.27757922 0.18114187 0.048696395
0.0893054 0.0803036 -0.099573694 -0.0701781 -0.019462137 0.19197935 -0.22029671 0.12330203
0.18984783 -0.20171599 -0.0019164468 0.040779 -0.14003998 0.15295692 -0.09726262 0.1863402
-0.032333154 -0.033185806 0.16454433 0.0036319771 -0.089343816 0.16073386 -0.13323443 -0.15654543
0.073558204 0.02274129 -0.21050604 0.13267565 -0.13169564 -0.2191391 0.097415924 0.16948347
-0.035146557 0.07002838 0.21289818 -0.27629483 -0.20050678 0.060755115 -0.27080488 -0.20443471
-0.08753279 0.017533427 -0.21381713 0.12058398 0.05095392 0.07645647 -0.06534379 0.09399837
-0.28450835 0.013411795 -0.18192548 0.037698116 -0.18495493 0.039182983 -0.0963896 -0.36072415
-0.17944999 -0.19040804 -0.09319219 0.20117922 0.07556339 -0.21594858 -0.20039837 0.18086082
-0.21886821 0.06860064 -0.022479676 -0.00087179424 -0.2712215 -0.21543102 0.17317289 -0.08121581
-0.16133569 -0.10569969 0.16971923 -0.19282717 0.021024255 -0.15074101 -0.17760132 0.22803599
0.17526095 0.13113306 -0.2764421 -0.10410023 0.19552238 -0.19033964 0.039541353 0.157284
0.06651299 0.121256605 0.13588613 0.0483785 -0.0928259 -0.18962146 -0.2907286 0.14041644
0.14117534 -0.21646172 -0.06735814 0.19179091 0.096952915 0.08369072 -0.21298851 0.18833809
-0.06639463 -0.0926846 0.09037219 -0.04432249 0.17900912 0.050763134 -0.05044503 0.18934502
0.07583627 0.2016054 -0.2793169 -0.022576706 0.109602235 -0.0039711646 0.031017788 0.08402211
-0.16171491 -0.12502606 -0.09275852 0.16828345 -0.12980457 0.0609207 -0.10678574 0.028673492
0.039690875 -0.06532149 -0.17310011 0.24096362 0.18264529 0.04859755 -0.009735717 0.16643186
-0.06283267 -0.10514916 -0.12809195 0.18178971 -0.044643134 -0.21778344 -0.11122901 -0.15648188
0.1343356 0.19250114 -0.061121404 0.10366424 -0.28736284 0.15382415 -0.15885316 0.010303187
0.111794814 0.21562693 -0.27058363 0.06894638 -0.29873055 -0.23565961 0.038604528 -0.020173443
-0.16157618 0.18390779 0.07430288 -0.1253211 -0.15793951 -0.17891216 0.060548645 0.094907366
0.19999416 0.01070817 -0.10750342 -0.08141593 -0.22057322 0.05540754 0.002717701 0.006845514
-0.21947896 0.21277046 0.1713769 0.0934002 -0.010907829 0.21391043 0.07182197 -0.06523158
-0.020921692 0.06216833 0.03594329 0.04661834 0.1631969 0.14753333 -0.2301501 0.084625974
-0.049060922 0.06789173 -0.011050924 -0.07543154 -0.06300731 -0.24998915 0.19620003 -0.18383805
0.11580546 -0.32423708 0.051516756 -0.053275242 0.095346816 -0.014669526 0.22633612 0.054737844
0.048236206 -0.13939986 -0.088936895 -0.062065445 -0.16117948 -0.24713314 -0.09909305 0.070510566
0.029806111 -0.27341354 -0.023792185 -0.18602899 -0.013664704 -0.12091221 -0.14837916 -0.14794792
0.025900532 -0.16110134 -0.017596388 0.012980354 0.029598193 -0.15816614 0.0091642365 -0.21637593
-0.1862391 -0.03203188 0.03265804 -0.098310255 0.036463175 -0.16507433 0.079631686 0.10165408
00000000: 0dfb 9e3d 468a 2dbe c9c6 63be d57c 383e
00000010: 8c02 19be 1621 1abd bc3c 7e3e 5887 0dbe
00000020: 8581 99bd 39c0 593e 6c4b 9dbd 910f 28be
00000030: 7aef a73d dd1e 8ebe 417d 393e df75 473d
00000040: c0e5 b63d 3776 a43d 4bed cbbd 89b9 8fbd
00000050: 0f6f 9fbc 3c96 443e 7695 61be c685 fc3d
00000060: 7867 423e a38e 4ebe 4931 fbba e107 273d
00000070: a466 0fbe bda0 1c3e a031 c7bd f7cf 3e3e
00000080: c56f 04bd d7ed 07bd 4f7e 283e 7706 6e3b
00000090: e4f9 b6bd 6b97 243e 9b6e 08be 724d 20be
000000a0: afa5 963d f14b ba3c e58e 57be 20dc 073e
000000b0: 39db 06be 0066 60be 0082 c73d 138d 2d3e
000000c0: d6f5 0fbd 0a6b 8f3d fb01 5a3e 8476 8dbe
000000d0: a651 4dbe 5bda 783d f0a6 8abe 5557 51be
000000e0: 6444 b3bd 43a2 8f3c e1f2 5abe bcf4 f63d
000000f0: 0fb5 503d 3695 9c3d f7d2 85bd 3882 c03d
00000100: 14ab 91be 25bd 5b3c ac4a 3abe 5769 1a3d
00000110: d364 3dbe 567e 203d e967 c5bd d6b0 b8be
00000120: bdc1 37be 53fa 42be 8cdb bebd ed01 4e3e
00000130: fbc0 9a3d a021 5dbe 3b35 4dbe 9433 393e
00000140: fd1e 60be 7e7e 8c3d 4c27 b8bc 1f89 64ba
00000150: 8bdd 8abe f399 5cbe 3c54 313e 7954 a6bd
00000160: 2f35 25be 1479 d8bd e1ca 2d3e 7c74 45be
00000170: 0f3b ac3c da5b 1abe 1fdd 35be 4482 693e
00000180: 9b77 333e bf47 063e d289 8dbe 8032 d5bd
00000190: 0537 483e 65e8 42be 1df6 213d 0f0f 213e
000001a0: f637 883d 6255 f83d bc25 0b3e 8928 463d
000001b0: 811b bebd 212c 42be 61da 94be 54c9 0f3e
000001c0: 4590 103e 24a8 5dbe 11f3 89bd d664 443e
000001d0: 408f c63d 0a66 ab3d a919 5abe b3db 403e
000001e0: e8f9 87bd 6cd1 bdbd 0e15 b93d 808b 35bd
000001f0: 2b4e 373e 01ed 4f3d 739f 4ebd a9e3 413e
00000200: 0c50 9b3d a571 4e3e a002 8fbe c9f2 b8bc
00000210: 2377 e03d 8b20 82bb 0419 fe3c c913 ac3d
00000220: 9898 25be d506 00be 2ef8 bdbd 7f52 2c3e
00000230: 7deb 04be fc87 793d 7bb2 dabd ace4 ea3c
00000240: e692 223d 46c7 85bd 2841 31be 2bbf 763e
00000250: 5e07 3b3e 390e 473d 8f82 1fbc 1d6d 2a3e
00000260: 6aae 80bd 7158 d7bd 892a 03be 1527 3a3e
00000270: b8db 36bd 9f02 5fbe 09cc e3bd c93c 20be
00000280: 468f 093e 051f 453e 705a 7abd eb4d d43d
00000290: 3921 93be 1484 1d3e 67aa 22be b3ce 283c
000002a0: aef4 e43d 4ecd 5c3e f089 8abe c233 8d3d
000002b0: 36f3 98be c150 71be c81f 1e3d c742 a5bc
000002c0: 3a74 25be 5352 3c3e 1c2c 983d 2d54 00be
000002d0: e5ba 21be c034 37be db01 783d cb5e c23d
000002e0: 45cb 4c3e 5271 2f3c c12a dcbd 65bd a6bd
000002f0: f2dd 61be 04f3 623d 751b 323b 5550 e03b
00000300: 18bf 60be 80e0 593e 6d7d 2f3e 9b48 bf3d
00000310: c0b6 32bc 560b 5b3e 6617 933d 2298 85bd
00000320: f863 abbc 38a4 7e3d 4539 133d dff2 3e3d
00000330: 171d 273e fa12 173e 78ac 6bbe 6250 ad3d
00000340: 1bf4 48bd d20a 8b3d ef0e 35bc da7b 9abd
00000350: fa09 81bd 28fd 7fbe a9e8 483e 0b40 3cbe
00000360: 6a2b ed3d 6702 a6be 3c03 533d 2437 5abd
00000370: 3145 c33d 7458 70bc a8c4 673e ca34 603d
00000380: 5493 453d d6be 0ebe 8c24 b6bd 5638 7ebd
00000390: 3c0c 25be 7810 7dbe 4cf1 cabd d867 903d
000003a0: f22b f43c dcfc 8bbe d4e7 c2bc 627e 3ebe
000003b0: ece1 5fbc d2a0 f7bd b5f0 17be a97f 17be
000003c0: 5a2d d43c c0f7 24be 4d26 90bc 8dab 543c
000003d0: e977 f23c 4ef6 21be 9825 163c a791 5dbe
000003e0: 76b5 3ebe dc33 03bd 70c4 053d e356 c9bd
000003f0: 695a 153d 3f09 29be f015 a33d 0430 d03d

sequential/conv2d_1/Conv2D f4 [32, 3, 3, 32]
0.09879358 0.05920724 -0.0069326246 0.10687576 -0.045222864 0.11916828 -0.00970585 0.016822034
0.05607266 0.045224786 -0.0027991987 0.11464968 0.17107928 0.006296072 0.14316992 -0.03067042
0.07651791 -0.018200343 0.07786108 -0.12704144 -0.025650382 0.059031326 -0.01648895 0.0664239
-0.07795734 -0.08889057 0.058367837 -0.11059363 -0.053717513 0.056105033 0.019856386 -0.014801783
-0.0692148 0.0675936 -0.06141505 0.040571857 0.014299594 0.019836485 0.0008386127 0.031434607
0.07041177 -0.043187436 0.00313283 -0.09439241 0.14214396 0.08807199 -0.047542784 -0.070297986
0.08216515 0.0066675274 -0.012708014 -0.056617934 0.1364748 -0.033863306 0.028074108 -0.020933993
-0.083117284 -0.014126559 0.10101024 -0.040564954 0.12769173 0.033673488 0.014246894 0.085608065
0.0042219614 0.0345659 0.1224886 0.16774094 -0.038596 0.14395612 0.08520712 -0.0024842317
0.115276895 -0.003945652 -0.06877645 0.0007612789 0.054614596 -0.0010056081 -0.14222372 0.08954377
0.071836606 -0.02281013 0.13428257 -0.05049426 0.103147954 -0.035946127 0.009162572 -0.16510227
0.0334962 -0.06605094 0.017385347 -0.08194164 0.07308402 0.1352378 -0.018616622 0.109696165
-0.048641924 0.038369082 0.061269097 0.13957039 -0.05628878 0.07409472 0.020093255 0.058540646
0.021155715 -0.023403466 0.0012718015 0.059980825 -0.022767935 -0.09243669 0.04086166 -0.01157723
-0.042482547 -0.100795545 -0.03189669 -0.08786269 -0.027761541 -0.061112903 0.0050615757 -0.001213421
-0.07657988 -0.060203064 -0.04187358 -0.0013540945 0.097318664 -0.017650126 -0.13130242 0.08065276
0.14147781 -0.06840167 -0.12006503 0.029158894 0.048654966 -0.040178537 0.118460275 0.11802888
0.050047472 0.08507142 0.10341349 0.08812709 0.010822078 0.114900924 -0.05949036 -0.03215698
0.12974927 0.05888422 0.0328691 0.027798682 -0.049560796 0.052614447 0.09032937 0.057645466
0.010020748 0.035555415 -0.010433147 0.11722088 0.09624378 -0.03700944 -0.044102505 -0.01547634
0.09165578 0.010831257 0.14246458 -0.0033557436 -0.08461065 0.021197684 0.0463326 0.087096214
-0.078988835 0.100605525 0.0783297 -0.008133858 0.13331483 0.08371938 0.01516509 0.023776589
0.04690632 -0.014013615 0.15947257 0.06715966 0.0029003965 0.066944964 0.01585169 -0.03990236
-0.0529222 0.06384013 -0.016263522 -0.055394776 0.12329793 0.105241805 0.05821191 0.10545727
-0.038632136 -0.0028100817 0.07279429 -0.011827853 -0.026162086 0.027936917 -0.049781792 -0.027081879
0.10388929 0.048005905 0.086523205 -0.07469917 0.059018586 0.0863619 0.036337107 0.07041568
-0.016430115 -0.0641511 0.08723836 0.10097864 0.08663703 0.05037309 0.079342425 -0.09425309
0.088186726 0.09799372 0.12051636 0.013858493 -0.06781177 0.00031038327 0.045999184 0.049188532
0.0065814108 0.017289441 0.09016194 -0.027071675 -0.10077028 0.09459647 0.119634494 0.04367358
0.05105145 0.10168539 0.00079436786 -0.03529259 0.13467975 -0.027339166 -0.08300118 0.06530014
0.030028492 -0.040509287 0.033962578 0.13581537 0.08144902 -0.0019269587 0.061580274 0.041282333
0.069519185 0.07711762 -0.02955825 0.09572029 -0.051007997 -0.015586968 0.03594286 -0.022181924
00000000: 4a54 ca3d 4a83 723d 122b e3bb aee1 da3d
00000010: 9c3b 39bd 800e f43d 4905 1fbc 5dce 893c
00000020: 72ac 653d a03d 393d c372 37bb 74cd ea3d
00000030: 682f 2f3e 484f ce3b 239b 123e 8840 fbbc
00000040: 6cb5 9c3d e318 95bc a175 9f3d 2717 02be
00000050: c020 d2bc d5ca 713d d613 87bc 4109 883d
00000060: 19a8 9fbd 420c b6bd 1d13 6f3d ea7e e2bd
00000070: e506 5cbd 64ce 653d dca9 a23c 2d83 72bc
00000080: 7dc0 8dbd 836e 8a3d 598e 7bbd ad2e 263d
00000090: d848 6a3c 2080 a23c 58d6 5b3a 93c1 003d
000000a0: 0c34 903d 4fe5 30bd 2a50 4d3b cf50 c1bd
000000b0: 308e 113e 165f b43d 39bc 42bd 64f8 8fbd
000000c0: 3446 a83d 467b da3b 4635 50bc 35e8 67bd
000000d0: 0dc0 0b3e 40b4 0abd acfb e53c c47d abbc
000000e0: 6539 aabd 1573 67bc 75de ce3d 7027 26bd
000000f0: 9fc1 023e 36ed 093d ce6b 693c 4853 af3d
00000100: 6158 8a3b f994 0d3d 4edb fa3d 48c4 2b3e
00000110: d716 1ebd 3c69 133e 1281 ae3d 7ece 22bb
00000120: 4b16 ec3d 874a 81bb abda 8cbd 9090 473a
00000130: 8eb3 5f3d 9cce 83ba 18a3 11be b962 b73d
00000140: 121f 933d 4fdc babc 5f81 093e 12d3 4ebd
00000150: 3c3f d33d 3f3c 13bd 9d1e 163c 9210 29be
00000160: 5033 093d b745 87bd b76b 8e3c 05d1 a7bd
00000170: 13ad 953d c77b 0a3e e381 98bc 62a8 e03d
00000180: c13c 47bd e628 1d3d 4ef5 7a3d 8aeb 0e3e
00000190: 108f 66bd f9be 973d 9c9a a43c 51c8 6f3d
000001a0: c04e ad3c a0b8 bfbc 94b2 a63a 74ae 753d
000001b0: d283 babc 734f bdbd 8e5e 273d 6cae 3dbc
000001c0: 2e02 2ebd e56d cebd 1ba6 02bd 5bf1 b3bd
000001d0: 2c6c e3bc 8651 7abd 93db a53b a70b 9fba
000001e0: ead5 9cbd 7d97 76bd a283 2bbd df7b b1ba
000001f0: 024f c73d ff96 90bc 2474 06be 462d a53d
00000200: 8fdf 103e 2d16 8cbd a8e4 f5bd a2de ee3c
00000210: 6e4a 473d 4092 24bd 4d9b f23d 20b9 f13d
00000220: 94fe 4c3d ed39 ae3d 74ca d33d fa7b b43d
00000230: 164f 313c 2d51 eb3d 2aac 73bd 0ab7 03bd
00000240: fedc 043e 9430 713d c0a1 063d 10ba e33c
00000250: 4300 4bbd 3f82 573d 9bfe b83d a71d 6c3d
00000260: 102e 243c 8ea2 113d caef 2abc 8011 f03d
00000270: 751b c53d 3697 17bd d4a4 34bd 7a90 7dbc
00000280: 07b6 bb3d 9675 313c 3ce2 113e 09ec 5bbb
00000290: 5948 adbd c4a6 ad3c 41c7 3d3d 805f b23d
000002a0: e6c4 a1bd 450a ce3d 526b a03d e043 05bc
000002b0: af83 083e 1175 ab3d ff76 783c 1fc7 c23c
000002c0: d720 403d 5d99 65bc c74c 233e 018b 893d
000002d0: 9414 3e3b 711a 893d 67db 813c a870 23bd
000002e0: f3c4 58bd 9dbe 823d 143b 85bc a2e5 62bd
000002f0: a083 fc3d 0489 d73d 9d6f 6e3d fbf9 d73d
00000300: bb3c 1ebd 5929 38bb 2c15 953d 9cc9 41bc
00000310: df51 d6bc f6db e43c fee7 4bbd d1da ddbc
00000320: e8c3 d43d d7a1 443d 1433 b13d e1fb 98bd
00000330: 79bd 713d 82de b03d 38d6 143d 1936 903d
00000340: 7398 86bc a761 83bd 06aa b23d e4cd ce3d
00000350: c16e b13d 0354 4e3d 487e a23d c407 c1bd
00000360: 3e9b b43d eeb0 c83d 48d1 f63d bc0e 633c
00000370: e6e0 8abd f0ba a239 a469 3c3d ea79 493d
00000380: e0a8 d73b 96a2 8d3c d3a6 b83d 6bc5 ddbc
00000390: a660 cebd cbbb c13d ee02 f53d 11e3 323d
000003a0: 531b 513d 6e40 d03d 203d 503a f68e 10bd
000003b0: 7de9 093e 63f6 dfbc 86fc a9bd 14bc 853d
000003c0: 50fe f53c 11ed 25bd 581c 0b3d 2f13 0b3e
000003d0: bece a63d 0192 fcba 993b 7c3d aa17 293d
000003e0: 1360 8e3d d8ef 9d3d 2524 f2bc 0009 c43d
000003f0: c3ed 50bd 7b60 7fbc d238 133d deb6 b5bc

sequential/conv2d_2/Conv2D f4 [32, 3, 3, 32]
0.1419324 -0.008288904 -0.051867843 0.042826712 0.06658963 0.12186238 0.038144387 -0.01965108
-0.14619303 0.06618245 -0.012342215 -0.17788638 -0.05347534 0.038189173 -0.078857884 -0.1421635
0.050493214 0.0650277 0.0046064756 -0.03465313 -0.07160865 -0.15268193 0.010276126 -0.052963298
0.061983142 -0.065840885 -0.01705969 0.061103545 0.112478085 -0.16756892 -0.02513049 -0.13717678
0.121251635 -0.03714771 0.036293328 0.05047612 -0.0949249 0.103116326 0.111713156 -0.062662035
-0.099164635 0.10250246 -0.034320764 0.038916532 -0.038318604 -0.073746115 -0.11226504 0.05054762
0.06254514 0.08349069 0.08578094 -0.07388326 -0.056011263 -0.04948345 -0.00962594 -0.013921206
0.14330629 -0.062148213 0.103949346 0.023169499 -0.09364247 -0.066519134 -0.08617314 -0.052845087
-0.07935564 0.07617055 0.06779064 -0.03864965 -0.04324416 0.027084202 0.0023445836 -0.045793474
-0.007263268 -0.006577561 0.032859713 0.036065858 -0.049361967 -0.0076473635 -0.095621824 0.08239308
0.12705635 -0.030679006 0.07254613 -0.005082336 -0.06915208 -0.011979876 0.014363268 0.08894065
-0.02680789 0.056727808 0.10322461 -0.0012694692 -0.0884022 -0.097562335 0.04831086 0.009323144
-0.05877601 0.06375689 -0.05527867 -0.04892546 0.028042799 -0.080972835 -0.06350864 0.07992151
-0.050404754 0.08553569 -0.052986573 -0.113450356 -0.15268616 0.07033957 0.010272135 0.018070621
-0.12815152 0.075062275 0.09599648 0.034150943 -0.004348674 -0.009262147 -0.013023258 0.07342195
-0.040057484 -0.050934404 0.10741358 0.0058198487 0.10343427 -0.05151524 -0.002621516 -0.06808857
0.08531428 0.071387306 0.018359065 -0.03756719 0.015351486 0.004457479 -0.02692222 0.08098998
0.115309656 -0.010857838 -0.024419628 0.029895702 -0.08152043 0.08808888 0.034332722 -0.03473471
-0.062008765 0.005332275 -0.079177834 0.043874472 0.10225762 -0.028133161 0.024133518 0.014581749
0.0765756 0.08149474 0.11428226 0.04700179 0.034128528 -0.013100119 0.008819734 -0.007740596
0.03544571 0.017659038 -0.04582866 -0.04347811 -0.06590488 -0.01696857 0.016836543 -0.053101465
0.010860386 -0.030336132 0.0912692 0.12490123 -0.043922678 0.027435305 0.18179147 -0.0147119565
0.0026845296 -0.022629028 0.04178904 0.16560431 0.019200236 0.13817163 -0.027224258 0.039435726
0.14290994 -0.010481639 -0.027958846 -0.0585442 0.08055631 0.008807186 -0.003810036 0.119967036
-0.07102867 0.12127846 0.048801064 -0.0121024335 0.08524891 0.030605096 -0.048993547 -0.09387279
-0.024389492 -0.064600915 0.060837463 -0.021753952 -0.039143562 -0.013630151 -0.050138745 0.12000378
-0.05778431 0.11212258 0.07125341 -0.14058238 -0.0714819 -0.005049056 -0.058304526 0.06854242
-0.0625737 0.09497035 0.09364405 -0.032595355 0.034608472 -0.018305073 0.07731893 -0.024099804
-0.008546043 0.07184568 -0.06169529 0.10110962 -0.039052904 0.0077049956 0.06453234 0.0021475032
0.021037811 -0.017175365 0.042118784 0.026380278 0.03265116 0.013970666 -0.011214656 -0.093769215
-0.08888523 0.024324669 -0.06722191 -0.058101688 0.053152338 -0.09331474 0.09362892 0.04928551
-0.02193696 -0.04395686 0.05700062 -0.0885261 -0.0072085834 0.0202532 -0.075510934 -0.067431465
00000000: ba56 113e 2fce 07bc 6073 54bd 106b 2f3d
00000010: 2560 883d fc92 f93d 4a3d 1c3d 4dfb a0bc
00000020: a0b3 15be aa8a 873d 0037 4abc d927 36be
00000030: f508 5bbd 406c 1c3d 3e80 a1bd 4f93 11be
00000040: f9d1 4e3d 3e2d 853d ebf1 963b 71f0 0dbd
00000050: 8ea7 92bd a758 1cbe 325d 283c 0bf0 58bd
00000060: 09e2 7d3d 96d7 86bd c3c0 8bbc b647 7a3d
00000070: e95a e63d 3097 2bbe 75de cdbc 1278 0cbe
00000080: c752 f83d 3228 18bd 50a8 143d 0cc0 4e3d
00000090: fc67 c2bd a72e d33d dec9 e43d f454 80bd
000000a0: d416 cbbd cfec d13d ee93 0cbd f166 1f3d
000000b0: f8f3 1cbd 3408 97bd 37eb e5bd 050b 4f3d
000000c0: ab17 803d 2bfd aa3d ebad af3d 1b50 97bd
000000d0: 116c 65bd 28af 4abd 1eb6 1dbc c515 64bc
000000e0: e2be 123e 208f 7ebd 65e3 d43d f6cd bd3c
000000f0: a0c7 bfbd 2f3b 88bd 8b7b b0bd 1774 58bd
00000100: 3685 a2bd 4eff 9b3d d2d5 8a3d 184f 1ebd
00000110: ca20 31bd b0df dd3c 96a7 193b f091 3bbd
00000120: b500 eebb 9588 d7bb e897 063d cbb9 133d
00000130: c62f 4abd bc96 fabb 60d5 c3bd b4bd a83d
00000140: 0f1b 023e 8a52 fbbc 1193 943d b989 a6bb
00000150: 9b9f 8dbd 3e47 44bc ea53 6b3c 8426 b63d
00000160: 389c dbbc 6b5b 683d 6d67 d33d 5164 a6ba
00000170: 360c b5bd c3ce c7bd 9ce1 453d 1ac0 183c
00000180: 1dbf 70bd f992 823d e36b 62bd 1066 48bd
00000190: 03ba e53c 16d5 a5bd d110 82bd e3ad a33d
000001a0: 3775 4ebd 562d af3d 7308 59bd a958 e8bd
000001b0: c359 1cbe 310e 903d 754c 283c d708 943c
000001c0: 273a 03be 40ba 993d cd99 c43d dce1 0b3d
000001d0: 527f 8ebb 43c0 17bc 815f 55bc 3f5e 963d
000001e0: 5113 24bd 98a0 50bd a7fb db3d 6eb4 be3b
000001f0: 59d5 d33d a501 53bd bdcd 2bbb 0572 8bbd
00000200: 41b9 ae3d 8233 923d c065 963c 0ee0 19bd
00000210: cd84 7b3c 0b10 923b fd8b dcbc 13de a53d
00000220: 7827 ec3d 13e5 31bc ac0b c8bc d5e7 f43c
00000230: 2ff4 a6bd f167 b43d 78a0 0c3d fc45 0ebd
00000240: e7fc 7dbd 5dba ae3b fd27 a2bd b8b5 333d
00000250: 716c d13d 8477 e6bc a8b3 c53c 4ae8 6e3c
00000260: abd3 9c3d b7e6 a63d d10c ea3d f384 403d
00000270: 5bca 0b3d e2a1 56bc a580 103c d3a4 fdbb
00000280: 852f 113d b0a9 903c d5b6 3bbd 1a16 32bd
00000290: 23f9 86bd ac01 8bbc caec 893c ec80 59bd
000002a0: c3ef 313c 7b83 f8bc 59eb ba3d 37cc ff3d
000002b0: 44e8 33bd 01c0 e03c 8b27 3a3e 6b0a 71bc
000002c0: efee 2f3b 8360 b9bc fc2a 2b3d 2d94 293e
000002d0: d049 9d3c dd7c 0d3e 6805 dfbc 5b87 213d
000002e0: fc56 123e 2ebb 2bbc f309 e5bc 0bcc 6fbd
000002f0: b5fa a43d 044c 103c ccb1 79bb 47b1 f53d
00000300: 7b77 91bd d760 f83d a0e3 473d 4949 46bc
00000310: fb96 ae3d 8ab7 fa3c 75ad 48bd 6140 c0bd
00000320: 79cc c7bc 7c4d 84bd b430 793d 5835 b2bc
00000330: 0055 20bd ff50 5fbc 495e 4dbd 8bc4 f53d
00000340: 3eaf 6cbd 86a0 e53d 4fed 913d d4f4 0fbe
00000350: 1a65 92bd 8d72 a5bb bad0 6ebd f85f 8c3d
00000360: a426 80bd d17f c23d 74c8 bf3d b582 05bd
00000370: 9dc1 0d3d 85f4 95bc 6359 9e3d f46c c5bc
00000380: b404 0cbc d423 933d 33b4 7cbd 8f12 cf3d
00000390: f0f5 1fbd 307a fc3b 8829 843d 20bd 0c3b
000003a0: 7d57 ac3c 5ab3 8cbc bf84 2c3d 741b d83c
000003b0: 39bd 053d 38e5 643c adbd 37bc 130a c0bd
000003c0: 7609 b6bd 8744 c73c a4ab 89bd 09fc 6dbd
000003d0: 44b6 593d cc1b bfbd 85c0 bf3d 9adf 493d
000003e0: 24b5 b3bc 1c0c 34bd 7b79 693d 2c4d b5bd
000003f0: fb35 ecbb 0aea a53c 7aa5 9abd 8219 8abd

sequential/conv2d/Relu;sequential/conv2d/BiasAdd;sequential/conv2d_2/Conv2D;sequential/conv2d/Conv2D;sequential/conv2d/BiasAdd/ReadVariableOp f4 [32, 3, 3, 3]
-0.0006452039 -0.00054185087 0.0004799359 0.00027934485 -0.00037468277 2.3825178e-05 0.000677099 0.0004162173
-0.00028909714 0.00011294822 -1.3633787e-05 -0.00051209587 -0.00047173406 2.0162712e-05 -0.00012803283 -2.1682176e-06
9.770523e-05 -3.690638e-06 0.0002441549 0.00044874937 -0.00058877916 -0.00027044042 0.00025506876 6.475687e-05
0.00024141665 1.9637091e-05 -2.2871833e-05 0.00024921715 -1.5327532e-05 -0.00050905603 0.0005211266 -6.105288e-05
0.0003966511 0.0005169916 -8.568222e-06 9.4139905e-06 0.00045534785 8.013375e-05 0.0003431436 0.00051672186
0.00041912938 -9.553833e-05 0.00041686397 -0.0003154555 -0.00059755077 -0.00013975188 -0.00039332637 0.00045817406
-0.00034000725 -0.00049223227 -0.00025092027 -0.000279335 -0.00016873344 -0.0006624596 0.0006449162 -0.00034584553
0.000541159 0.00053087715 3.618663e-05 -0.00023689715 0.00035058276 -0.00023255893 -0.00037260144 0.0005559916
0.00053962023 0.00035681337 -0.00052994315 0.000113729766 -0.0003314029 3.216089e-05 -0.00032626587 0.00012008422
-7.1620045e-05 -1.2485221e-05 0.00030692812 -0.00023511036 -0.0005952227 -0.0004759577 -0.00043802435 -0.00024363463
9.669429e-05 -7.2204166e-05 -0.00040418014 -0.00017314241 0.00046041637 3.854993e-05 0.00047942164 -0.0005321203
-9.625123e-05 0.00012959284 -0.00026441299 -0.00027910777 -4.564588e-05 0.0001841966 0.00026344467 9.4190465e-05
-0.00053196255 -0.00029499555 -0.00026589725 0.0003780053 -0.0003782754 -0.000788278 0.00035987486 0.00015743198
0.00024695488 0.00029433807 0.00010521091 0.0004981829 -0.00037585315 0.00025520124 -1.4868158e-05 -0.0003628808
-6.4019725e-05 0.00047262514 8.693365e-05 -3.5025403e-06 9.073503e-05 0.00043388663 0.0005421031 -0.000105538806
-0.00055439014 -0.00022931954 -0.0004795122 -0.0003532591 0.0005169556 0.00027214608 0.00020817984 -0.0002262736
0.00012925304 -0.00022832987 -0.00057606224 -0.00062475086 -1.4500213e-05 0.00057433534 0.00022583445 -0.000458498
-0.0003987068 0.00027346326 0.00016191046 -0.00015824602 -0.00040426358 -0.00026164224 -0.00046520424 -0.00016410046
-0.00017668717 2.0082285e-05 0.00016498953 0.00039065327 -0.00019460285 -0.0004023072 0.00036262107 0.000139625
5.2068724e-05 0.0006454646 -0.0001529894 0.00037283864 0.0006467437 -0.00018183351 -0.0005222969 -0.00020381842
0.0006447128 0.00041088817 -0.0003595614 -7.805095e-05 -0.00025550602 0.0003150419 0.000563013 0.00040210137
0.00031939772 0.00014538046 0.00039895865 -0.00012048431 -1.8632749e-05 -0.00066912576 0.00032707275 -1.07700025e-05
-0.0004127695 -0.0004922082 -0.00045556406 0.00013461807 0.00017082476 0.00021444485 -0.00045958394 -9.954148e-05
8.849727e-05 -0.00033223693 3.5078116e-05 0.00017814814 0.00011352074 4.0231178e-05 -0.00053960667 -0.00026471348
0.00030519217 -0.00067940896 -0.0005222186 -7.812716e-05 -0.0004412108 -8.388755e-05 0.00041549208 0.00011456278
0.00068968686 -0.00023948216 0.00052960095 0.00081209093 -0.00011537258 0.00055769185 2.4112893e-05 -0.00018500777
-3.5088233e-05 0.00027110404 1.4546581e-05 -0.00029333762 0.00026052434 -0.00028441986 -0.00038878171 0.0004987176
-0.0004485638 0.00026760917 -0.0002750824 -0.0004580961 -0.00034094581 -0.00017744701 8.392317e-05 0.00019403109
-0.000363688 -0.00023911416 0.0001650213 -0.0006134485 -0.00044570942 -0.00051055994 0.0001121842 0.00060957804
0.0006831734 0.00058715 0.00035178996 -0.00040574247 5.090872e-05 -0.00013356857 0.0001130321 -0.00029952294
-0.000197991 0.0005567822 0.0003939406 0.00029167326 -0.00033596766 0.00021357584 0.0003398538 0.00047161832
0.0003253012 0.00030027734 0.000480933 -0.0001736466 -5.788725e-05 -0.00039034514 -0.00015500496 -0.00020220745
00000000: e722 29ba ff0a 0eba e89f fb39 0875 9239
00000010: 1271 c4b9 2edc c737 587f 313a be37 da39
00000020: f691 97b9 9dde ec38 abbc 64b7 2c3e 06ba
00000030: 1353 f7b9 1823 a937 8d40 06b9 b281 11b6
00000040: 19e7 cc38 aeac 77b6 ea01 8039 1f46 eb39
00000050: 4d58 1aba e6c9 8db9 c0ba 8539 14ce 8738
00000060: ca24 7d39 55ba a437 e3dc bfb7 5ca9 8239
00000070: a093 80b7 2c72 05ba 379c 083a 8409 80b8
00000080: 9cf5 cf39 b886 073a 3cc0 0fb7 c8f0 1d37
00000090: c1bb ee39 7b0d a838 f4e7 b339 9e74 073a
000000a0: 98be db39 c05b c8b8 898e da39 b863 a5b9
000000b0: f4a4 1cba 5c8a 12b9 5f37 ceb9 1537 f039
000000c0: 0043 b2b9 2609 01ba f38d 83b9 b673 92b9
000000d0: 0aee 30b9 e9a8 2dba 980f 293a 9a52 b5b9
000000e0: 91dc 0d3a 902a 0b3a 19c7 1738 9867 78b9
000000f0: 6cce b739 10db 73b9 b859 c3b9 f7bf 113a
00000100: 4d75 0d3a ae12 bb39 e2eb 0aba 3482 ee38
00000110: 25c0 adb9 7ee4 0638 aa0e abb9 bad5 fb38
00000120: b832 96b8 9e77 51b7 32eb a039 f587 76b9
00000130: b808 1cba f689 f9b9 a2a6 e5b9 2c78 7fb9
00000140: 5ac8 ca38 516c 97b8 24e8 d3b9 908d 35b9
00000150: 0a64 f139 acb0 2138 e25a fb39 fd7d 0bba
00000160: 7cda c9b8 50e3 0739 e9a0 8ab9 3655 92b9
00000170: e473 3fb8 e624 4139 f21e 8a39 1f88 c538
00000180: 6773 0bba a2a9 9ab9 2068 8bb9 032f c639
00000190: 4453 c6b9 71a4 4eba 96ad bc39 5314 2539
000001a0: b979 8139 6351 9a39 ada4 dc38 7d98 023a
000001b0: 280e c5b9 88cc 8539 4172 79b7 0941 beb9
000001c0: 5442 86b8 acca f739 2650 b638 2f0d 6bb6
000001d0: 0049 be38 477b e339 ec1b 0e3a b754 ddb8
000001e0: 7e54 11ba 7f75 70b9 0a67 fbb9 a235 b9b9
000001f0: 4e84 073a d4ae 8e39 da4a 5a39 db43 6db9
00000200: 1988 0739 d56b 6fb9 e202 17ba 52c6 23ba
00000210: f145 73b7 fe8e 163a f9cd 6c39 8f62 f0b9
00000220: 8509 d1b9 9e5f 8f39 82c6 2939 d8ee 25b9
00000230: 57f3 d3b9 072d 89b9 a8e6 f3b9 6212 2cb9
00000240: 1a45 39b9 6176 a837 0a01 2d39 98d0 cc39
00000250: 4e0e 4cb9 c2ec d2b9 2d1e be39 4d68 1239
00000260: 5e64 5a38 6534 293a c86b 20b9 8e79 c339
00000270: 3c8a 293a 90aa 3eb9 c0ea 08ba 17b8 55b9
00000280: f201 293a 7a6c d739 8483 bcb9 49af a3b8
00000290: 70f5 85b9 352c a539 2a97 133a 22d1 d239
000002a0: d674 a739 4571 1839 532b d139 85ac fcb8
000002b0: 864d 9cb7 4568 2fba f67a ab39 cfb0 34b7
000002c0: fc68 d8b9 8807 01ba c6d8 eeb9 4328 0d39
000002d0: 6c1f 3339 9adc 6039 50f4 f0b9 edc0 d0b8
000002e0: 9c97 b938 1630 aeb9 d720 1338 47cd 3a39
000002f0: fc11 ee38 e6bd 2838 6474 0dba 3ec9 8ab9
00000300: 3302 a039 5d1a 32ba 7fe5 08ba 33d8 a3b8
00000310: 5052 e7b9 c9ec afb8 67d6 d939 6d41 f038
00000320: 1acc 343a 811d 7bb9 ebd4 0a3a 80e2 543a
00000330: 2ff4 f1b8 1132 123a 0b46 ca37 a5fe 41b9
00000340: b42b 13b8 f822 8e39 170d 7437 1ccb 99b9
00000350: fc96 8839 301e 95b9 66d5 cbb9 5fbc 023a
00000360: 372d ebb9 e54d 8c39 ef38 90b9 9e2c f0b9
00000370: f9c0 b2b9 1211 3ab9 e9ff af38 d374 4b39
00000380: 61ad beb9 b8ba 7ab9 9109 2d39 d5cf 20ba
00000390: 1bae e9b9 19d7 05ba 6f44 eb38 17cc 1f3a
000003a0: fe16 333a f8ea 193a 7370 b839 d5b9 d4b9
000003b0: d286 5538 8a0e 0cb9 a60b ed38 4a09 9db9
000003c0: ce9b 4fb9 05f5 113a d089 ce39 b9eb 9839
000003d0: d124 b0b9 54f3 5f39 682e b239 8a43 f739
000003e0: 308d aa39 8b6e 9d39 bc25 fc39 e714 36b9
000003f0: f6cb 72b8 3da7 ccb9 d488 22b9 a607 54b9
